analysis/portfolio_exercise/output_data/mle/weights_is.npy (npy, 47112 bytes, 1 tensors)

array f8 [839, 7]
0.0 0.0 0.0 0.0 0.0 0.0 1.0 3.6057329060099804e-06
0.37760971993517833 0.27582179367769044 6.534918503451593e-06 6.59006436086271e-06 5.7527134041752426e-06 0.34654599827137816 -8.839896933915335e-06 0.3757305224832108
0.2777422264560584 -8.494079394724683e-06 -8.366639424939681e-06 -9.720338777053877e-06 0.3465626774815096 -2.1298454544008493e-06 0.37136593198808504 0.28207719963373623
-1.941076245395092e-06 -1.7019651492634908e-06 -1.7112977851293533e-06 0.346564353931313 -4.6165815299137175e-06 0.3672766704253514 0.28616784287215713 -4.434223099366964e-06
-4.376607987882738e-06 -5.794870460174433e-06 0.3465747121593644 -3.123449980102021e-06 0.37921988683330404 0.27421607598819064 -2.959635195366248e-06 -2.7757271006591826e-06
-2.5236878822779996e-06 0.34657542180978723 -8.662835880546484e-06 0.3608115268460358 0.2926341659465942 -8.465247935819907e-06 -8.30533485978333e-06 -9.612199912257359e-06
0.3465893586701437 -2.2492257045819625e-06 0.36680374672816063 0.2866125380680838 -2.1312517732199013e-06 -2.256747196569972e-06 -3.2637524937812277e-06 0.34659361807121225
-1.8572788638971827e-06 0.371495454305492 0.2819142661714902 -1.6978515933119234e-06 -1.8514142461119894e-06 -2.413487305281019e-06 0.3465981011297127 2.906422540737126e-06
0.36930490409763195 0.2841880089556396 3.3864110953555273e-06 3.4195681363752075e-06 -3.6530389314993313e-06 0.3465010277470623 5.2306269585209355e-06 0.35838315589988595
0.29630937619058795 5.710803497994101e-06 5.495804616006289e-06 5.5558280851784465e-06 0.3452854695530305 -4.104568006555753e-08 0.251958985574449 0.21643554310708973
6.370388329069322e-09 0.06071222675341869 0.12560079478558112 0.34529248445755756 -1.3402122021972993e-08 0.24429018358266938 0.2064265007721961 3.9054812318259456e-08
0.06511370421169227 0.1388693284229649 0.3453002573393361 -4.057402148063024e-08 0.26102971833283894 0.2156631911851716 9.131200750320358e-09 0.06233716244400076
0.11566504958306174 0.3453049099043656 1.4007008466590135e-07 0.3107361317934668 0.23860027315035465 2.541301734935276e-07 0.04258301819076246 0.06276932148377162
0.34531086104801606 2.5658032513138773e-07 0.36015494823678157 0.24339770436848887 3.0750511583082073e-07 0.034190839554116795 0.016952579433224767 0.34530336416411544
2.0138267220278712e-07 0.331078196698652 0.23978947593841032 2.400797239783407e-07 0.03399351286527166 0.049817554402581024 0.3453208184244168 1.1423794479845971e-07
0.3213384235947795 0.23565568864155145 2.1731320634606692e-07 0.04448116085513544 0.05320128957450348 0.3453231056768115 3.1231875766835693e-07 0.34201403345230985
0.2506512158902396 3.2471470942914144e-07 0.026775639409414433 0.03521700426468445 0.34534146967796286 1.2021951420225867e-07 0.1841989954686023 0.12917647422761275
1.8105079035020773e-07 0.13045528612652296 0.21081214887585384 0.34535679388181606 2.408990581131036e-08 0.16647892546340892 0.11845342616197425 9.654636399140555e-08
0.13673865870964205 0.2329554321084982 0.34537343680653143 1.0682480068845771e-07 0.1667467679302316 0.1486515659737861 1.641996175907648e-07 0.11589646348073267
0.22331283108275193 0.3453921003559259 1.0490387500210966e-07 0.17268386211929776 0.14474783886679446 1.656357062053722e-07 0.11376516744415122 0.2233921477478165
0.3454107131284173 7.610180404341356e-09 0.20640436929435138 0.13463532532776532 5.917508929169336e-08 0.1217538344678163 0.19178429784331535 0.34542210623873737
-2.775069444837399e-08 0.2349652449986318 0.16907713550434927 2.1068158671132776e-08 0.10437356570792485 0.14615448972920012 0.34542957071829694 -1.4078039144217318e-07
0.18971619095015732 0.09342996437729399 -7.970396103450196e-08 0.172883295514555 0.19853775186402156 0.3454330178226407 -5.912193700492977e-08 0.19064400003048254
0.0954324710487223 -1.8233673847514758e-08 0.16488116711675124 0.20360418804639774 0.34543825110047754 -9.502664452528719e-08 0.18467363608073367 0.11382024670481401
-5.887892390457468e-08 0.1711977000382447 0.18486670991321655 0.34544186119421305 -3.3167459132689954e-08 0.1772009281001517 0.11016314190038835 5.49676422740507e-09
0.1791041503792956 0.188080995368838 0.3454508119029468 7.761712753929705e-08 0.1443897603368075 0.15128621944869863 1.2788815636834037e-07 0.14214271748097834
0.21671435155316351 0.345466745581511 8.751998911512986e-08 0.15160690386908138 0.12886581116122567 1.326379930146572e-07 0.13684023931006672 0.2372017764929996
0.3454850489046221 8.25117293948995e-08 0.1612891582147507 0.12256397175283812 1.3088159947023918e-07 0.1400157329254948 0.2306293121345702 0.34550161148270464
6.951290286811955e-08 0.14856740968266013 0.11824694574154193 1.1244814675339937e-07 0.14428365137830107 0.243382736752009 0.34551907438713436 7.544134588895678e-08
0.15015877119596666 0.12186148690248931 1.2036038498144116e-07 0.14276094755729535 0.23968222326988756 0.34553637516851854 1.0437598339070518e-07 0.1527702694366145
0.10779933475870988 1.5258795464347625e-07 0.14752972323200186 0.24634681977369044 0.3455535957263717 8.115586875413871e-08 0.15743591708833454 0.12092382719247952
1.375624273241989e-07 0.14222222591734468 0.23384864562220875 0.3455691653512065 8.255417120788164e-08 0.16439586200816442 0.13161586835937378 1.4463071543982172e-07
00000000: 0000 0000 0000 0000 0000 0000 0000 0000
00000010: 0000 0000 0000 0000 0000 0000 0000 0000
00000020: 0000 0000 0000 0000 0000 0000 0000 0000
00000030: 0000 0000 0000 f03f 903b dfa0 403f ce3e
00000040: ea7d 71f5 c12a d83f d2a9 d773 10a7 d13f
00000050: 242a 64b8 d068 db3e 2eb7 1f19 07a4 db3e
00000060: caa6 ddd1 ed20 d83e cda7 4844 cf2d d63f
00000070: 3e26 f32e e289 e2be 1829 8b08 f80b d83f
00000080: 3235 d654 87c6 d13f ffdf f961 39d0 e1be
00000090: d800 a92a ce8b e1be 7882 5c30 9162 e4be
000000a0: a006 7339 152e d63f 0c5f d6eb cedd c1be
000000b0: 5331 2f9d 75c4 d73f 3ef2 d786 8d0d d23f
000000c0: 26ac 7bf3 6d48 c0be 7e54 c078 e28d bcbe
000000d0: 2edb 36d0 f7b5 bcbe f809 8641 1c2e d63f
000000e0: 3661 a744 045d d3be c4e1 0302 7681 d73f
000000f0: c660 93ed 9250 d23f 63f2 e7f6 3599 d2be
00000100: 7280 ddd7 585b d2be 5168 f4dc 314e d8be
00000110: da15 96b3 472e d63f 96fb 33c9 8e33 cabe
00000120: 7747 fc7c 2345 d83f dc07 9a95 c18c d13f
00000130: 4608 d8a7 c4d3 c8be e3af 811c d448 c7be
00000140: 26d0 f115 942b c5be e94e 91ad 4a2e d63f
00000150: aa33 f718 d32a e2be 0ab5 f43a 8917 d73f
00000160: f6b3 1ba7 84ba d23f fcb6 32d1 bec0 e1be
00000170: 306a 0788 e46a e1be 1d1b 4eb2 8228 e4be
00000180: f94f 2822 852e d63f 4138 68e8 2cde c2be
00000190: 98da 0f6c b679 d73f f90f 681d dc57 d23f
000001a0: 98a5 9d0d d4e0 c1be e355 4ce4 53ee c2be
000001b0: d194 96e8 da60 cbbe 1e90 a7ff 962e d63f
000001c0: 5ded f5b4 f328 bfbe 3cb4 b6de 94c6 d73f
000001d0: 78df 5e22 e20a d23f 0b85 af91 377c bcbe
000001e0: c75f ce7d c30f bfbe f0d0 85ad ec3e c4be
000001f0: de4c 4dcd a92e d63f 388f 7bb0 7e61 c83e
00000200: 0083 5609 b1a2 d73f 174f 18e7 2230 d23f
00000210: ec54 1930 4368 cc3e b0fa c576 77af cc3e
00000220: c85c 1564 d7a4 cebe af0e 8da5 122d d63f
00000230: 5f3c 55ca 57f0 d53e f3be 81e7 bfef d63f
00000240: b026 0f9a bbf6 d23f 9d35 66b6 edf3 d73e
00000250: e7fc 1245 130d d73e a693 3865 864d d73e
00000260: cce9 e039 2819 d63f 7496 e57a 4609 66be
00000270: 2370 be94 1820 d03f 2221 abed 28b4 cb3f
00000280: ee7c 14e8 505c 3b3e 2f1d bf48 ac15 af3f
00000290: aa53 fad4 af13 c03f e42f 13a6 4519 d63f
000002a0: 36fb f3fd e4c7 4cbe df56 9c96 e644 cf3f
000002b0: 0e12 ecfe 2e6c ca3f 2036 680c a7f7 643e
000002c0: a052 1cae 4aab b03f 3e3f ff5b 78c6 c13f
000002d0: 4aa9 2440 6619 d63f 28cc 0a78 73c8 65be
000002e0: 3c83 e1fd b5b4 d03f f7af 8bf8 d99a cb3f
000002f0: 8269 5f42 ee9b 433e fd7a 0b14 a8ea af3f
00000300: 2ddd 3f85 399c bd3f 9eff cbc3 7919 d63f
00000310: b0b5 8d7e c5cc 823e 5a43 efcc 19e3 d33f
00000320: 1eac ff28 748a ce3f 0b8a a952 ec0d 913e
00000330: 9c14 fdfc 70cd a53f 4c04 f776 a611 b03f
00000340: b9e8 c9b9 9219 d63f 96bf 2934 0438 913e
00000350: e7d9 0a57 c70c d73f c591 17ee a727 cf3f
00000360: 3f7e 44cd e5a2 943e 9a59 6a33 7681 a13f
00000370: f381 fe58 045c 913f 6427 1248 7319 d63f
00000380: 74e4 beb7 7407 8b3e c451 cf9a 6230 d53f
00000390: 3a4c 8aea 6bb1 ce3f 20ad dcca 891c 903e
000003a0: 74a3 1004 9967 a13f aa00 dabd af81 a93f
000003b0: 59b1 707d bc19 d63f ee3b a02d 5faa 7e3e
000003c0: de6a 1209 cf90 d43f 2679 ea31 f729 ce3f
000003d0: 0cb9 8f2d d32a 8d3e 6264 5216 3cc6 a63f
000003e0: 77b0 a70d 333d ab3f fbd7 5b15 c619 d63f
000003f0: 5ffc 296c 98f5 943e 9cd8 1cd4 8ee3 d53f
00000400: b3e0 bc65 ab0a d03f 56c1 1865 8eca 953e
00000410: 6727 5fbe 126b 9b3f 42ea 2893 f607 a23f
00000420: 140b 8e1b 131a d63f 0d96 ae07 b622 803e
00000430: 8831 bf2a d593 c73f fa2e 1cce da88 c03f
00000440: 0069 fa97 db4c 883e 827a c041 c2b2 c03f
00000450: 27b9 827a e4fb ca3f c01f cb61 531a d63f
00000460: af40 576b c8dd 593e 0856 2b72 2e4f c53f
00000470: 1dff 76b7 f652 be3f a64a e598 9dea 793e
00000480: 6bdf a001 a780 c13f 2b70 2acd 7bd1 cd3f
00000490: 6a6f ff2f 991a d63f 2e10 93c4 f1ac 7c3e
000004a0: 8dad 7c45 f557 c53f fea4 2db7 0307 c33f
000004b0: 864e 4c1c db09 863e 9f2e 5f00 64ab bd3f
000004c0: 2188 23cd 8395 cc3f 33d4 d477 e71a d63f
000004d0: 5885 5e7c f028 7c3e bcb7 2c3a 811a c63f
000004e0: 61be 0ce1 1887 c23f 2b75 5f14 333b 863e
000004f0: 58ba 98c9 b61f bd3f 094a 6128 1d98 cc3f
00000500: 16c6 2489 351b d63f 7ed2 10ad bd57 403e
00000510: 9974 ef57 756b ca3f 2ba4 95f7 ba3b c13f
00000520: e6d8 2a5c f6c4 6f3e a9ad 3361 422b bf3f
00000530: 5aca 8f4b 638c c83f 9617 6752 651b d63f
00000540: 8437 b584 0dcc 5dbe bc9d 7b55 5713 ce3f
00000550: 920b bfcf 51a4 c53f 3aac 29de 2b9f 563e
00000560: 454e 48db 39b8 ba3f 3576 c6b8 30b5 c23f
00000570: 229c 53a1 841b d63f 5a53 386b 2de5 82be
00000580: f388 d3c1 9e48 c83f 3f88 77b1 06eb b73f
00000590: 0406 37e9 3665 75be 6a3e 2132 0a21 c63f
000005a0: bc7f a35f af69 c93f da6f a016 931b d63f
000005b0: 5efd ed3a a8bd 6fbe 309f a7c8 0567 c83f
000005c0: 7677 212e 436e b83f 2026 fbba 0894 53be
000005d0: ab12 3f7a d31a c53f ea73 7eb8 b30f ca3f
000005e0: 2ae5 d009 a91b d63f 88d5 df68 2e82 79be
000005f0: 5638 b3bd 62a3 c73f a546 38dd 5223 bd3f
00000600: 7a63 83f7 419c 6fbe 6647 6865 cee9 c53f
00000610: 1d23 995c b6a9 c73f b2e7 1f2e b81b d63f
00000620: 787e 2e39 80ce 61be 6a68 811f 85ae c63f
00000630: 81d0 afd3 a633 bc3f 9076 3895 c19b 373e
00000640: 087d 3a82 e2ec c63f 56dc 0dbe 0913 c83f
00000650: cafc dfb8 dd1b d63f 2ede a9f2 ced5 743e
00000660: 0c0e 4319 5d7b c23f d20e 6fca 585d c33f
00000670: 96ca ae1e 342a 813e de01 7989 bb31 c23f
00000680: cf51 3fbe 4bbd cb3f 7c33 888d 201c d63f
00000690: 57ca 5dee 537e 773e 2c96 fbe2 da67 c33f
000006a0: e546 41c6 ac7e c03f da3e f51f 68cd 813e
000006b0: d088 4e20 fb83 c13f a596 4bb8 a05c ce3f
000006c0: 1759 9352 6d1c d63f 38ae c1b1 2926 763e
000006d0: 22a9 dd85 1fa5 c43f 9ca7 583a 5a60 bf3f
000006e0: 184a 4db9 0e91 813e 8a94 eb18 09ec c13f
000006f0: 61f8 8ee4 4285 cd3f 1a25 82ca b21c d63f
00000700: 504d 74eb e3a8 723e a052 ebc2 4104 c33f
00000710: b8d2 cf8c 6e45 be3f 452e d1b7 602f 7e3e
00000720: da35 02fe e277 c23f ba63 615f 2a27 cf3f
00000730: 84c3 2809 fc1c d63f 93dc 3b31 4a40 743e
00000740: b842 bf11 6738 c33f 175c e37c 5032 bf3f
00000750: 66ee 7924 8d27 803e 72c8 73a0 fd45 c23f
00000760: ed38 3037 e8ad ce3f d056 bb99 441d d63f
00000770: 8fa1 e7b7 a904 7c3e db03 84e7 f98d c33f
00000780: 13b8 51b9 bc98 bb3f 0f38 d6d7 e17a 843e
00000790: a014 3c04 41e2 c23f d867 33e7 4a88 cf3f
000007a0: fa3c 2ad4 8c1d d63f 89b2 4724 fdc8 753e
000007b0: de19 8e31 dc26 c43f 904e 192b ddf4 be3f
000007c0: 23fe 37e8 9b76 823e 2027 8a80 5634 c23f
000007d0: d4a4 949e c0ee cd3f ec1f ec21 ce1d d63f
000007e0: e98f b056 1429 763e 261e 7671 ec0a c53f
000007f0: c07b 1eed c9d8 c03f 3b9f 143a 7969 833e
