analysis/portfolio_exercise/output_data/mle/weights_oos.npy (npy, 223808 bytes, 1 tensors)

array f8 [2796, 10]
0	0x0000000000000000	0.0
1	0x0000000000000000	0.0
2	0x0000000000000000	0.0
3	0x0000000000000000	0.0
4	0x0000000000000000	0.0
5	0x0000000000000000	0.0
6	0x0000000000000000	0.0
7	0x0000000000000000	0.0
8	0x0000000000000000	0.0
9	0x3ff0000000000000	1.0
10	0x3ede0297ba91e3e5	7.1549720043134875e-06
11	0x3ee4104881ee62af	9.567073048265038e-06
12	0x3ee58130940bca58	1.0254215000203893e-05
13	0x3ee82ee5c7c4b2f5	1.153144534579143e-05
14	0x3ee465f0138762ca	9.726617109005564e-06
15	0x3fbd76197ef63abd	0.11508330678609986
16	0x3fc58499a2da4722	0.16810913516797493
17	0x3ee9855e1af742ab	1.2169345466357442e-05
18	0x3fd999bd205ab288	0.40000847014997776
19	0x3fd445724e0aa282	0.31673867818111756
20	0x3eaa6beaa44c52be	7.874235242477879e-07
21	0x3ea2b28643a4517a	5.572247865648241e-07
22	0x3ea2173e370e8a53	5.391476475168101e-07
23	0x3ea4927816d4fbb0	6.130976949804631e-07
24	0x3ea29e75ab469d28	5.548889335142269e-07
25	0x3fbfac78428f3a20	0.12372542977320977
26	0x3fc478ca9db8b22c	0.1599362630962714
27	0x3ea0e0d3f89ae86a	5.030105835947809e-07
28	0x3fd999a43020b950	0.400002524375755
29	0x3fd43ec98666e3e5	0.3163322269934368
30	0xbe72abd184757fce	-6.955551256270929e-08
31	0xbe96aad82489b387	-3.37769993786004e-07
32	0xbe9ab297cd0ce5b8	-3.9782567022895086e-07
33	0xbe9d0be00a3adfee	-4.328248996809764e-07
34	0xbe9ad3a114fa6b5a	-3.9974863328691206e-07
35	0x3fc123fa1994546c	0.13391042946810516
36	0x3fc32c2ffa67472e	0.14978599287729238
37	0xbea205b99a68cd78	-5.371082821337318e-07
38	0x3fd999993dc1ba43	0.39999991446430644
39	0x3fd43e5ad7d0cd1c	0.31630583835358705
40	0xbee1bd3b118cb890	-8.458701402949237e-06
41	0x3ec33ac43523006e	2.2923417556109293e-06
42	0x3ed259826cdfda30	4.374896617412432e-06
43	0x3ed475d6e8ee267e	4.878118160864273e-06
44	0x3edd4852b7e6f04e	6.981494946985894e-06
45	0x3fbd9d309b6a57cd	0.11567977709122985
46	0x3fc5961284720ff4	0.16864234416072998
47	0x3ee43cce0c7266d0	9.650001074046523e-06
48	0x3fd999a7527fcfab	0.4000032716423855
49	0x3fd433b093d7ca24	0.3156548923281284
50	0xbe80ea14bb1ecd42	-1.260219427125262e-07
51	0xbe87a999f2188c76	-1.762994026747814e-07
52	0xbe89cc9a545bbb08	-1.9221924157189934e-07
53	0xbe8c1168bf92ac96	-2.091229303382329e-07
54	0xbe88681833e76362	-1.8184348422772177e-07
55	0x3fc03f65386f22aa	0.12693467383930584
56	0x3fc4265b2e7376a2	0.15742053764454506
57	0xbe8ecd182c09b028	-2.29486451192182e-07
58	0x3fd999994348aa64	0.3999999196118209
59	0x3fd4338b36a01a16	0.31564598402511146
60	0x3ecea9e5e1a23fa4	3.655393595876316e-06
61	0x3ec554c8c2aa298f	2.5428758097568265e-06
62	0x3ec4464bd723dfe9	2.416920033995036e-06
63	0x3ec647091ca68ccc	2.6556828959953257e-06
64	0x3ebfed4ba9a2725e	1.9029936653487226e-06
65	0x3fbc6502e927a767	0.11091631119020705
66	0x3fc63459720ea66d	0.17347257680130515
67	0x3ec1ab22fc105c74	2.1062496391544323e-06
68	0x3fd999b7d843bf56	0.40000721091836533
69	0x3fd4329a9aaf9322	0.3155886183360953
70	0xbe64882feae28d8c	-3.824379511796176e-08
71	0xbe93e6e486cdebfb	-2.96561785621547e-07
72	0xbe99c6a346bde5b1	-3.8409127144748295e-07
73	0xbea1a1aba69ed3ff	-5.254604051792851e-07
74	0xbea05fe91f5b60a4	-4.880026256105612e-07
75	0x3fbd995226a5efe2	0.1156207413059174
76	0x3fc5c2621f6db19a	0.16999460730165766
77	0xbea505d1a6d982e7	-6.265261853315949e-07
78	0x3fd999a2c8095ed6	0.4000021890146689
79	0x3fd41ee1838c7af0	0.3143848213821192
80	0xbeca77447a9c1299	-3.1549797839833984e-06
81	0xbedb0b5020bcee24	-6.447837687602611e-06
82	0xbedd6c863c41cbe4	-7.015209977467654e-06
83	0xbede6b3fdf2c0748	-7.252441252660249e-06
84	0xbedaadd402d19125	-6.3607731536112195e-06
85	0x3fc0790234673d1e	0.1286928897738812
86	0x3fc48473adec330b	0.16029211036984523
87	0xbee1a101488d07af	-8.406126896457479e-06
88	0x3fd9995851812bbe	0.39998443564826036
89	0x3fd3e88ecfe94f1d	0.3110692053207787
90	0x3e7f174544527894	1.158226306690385e-07
91	0x3e7bbfc1f8f4f66f	1.0337327992646312e-07
92	0x3e7be8be2539259c	1.0396969090625377e-07
93	0x3e7558c38fa3d710	7.952278116896146e-08
94	0x3e72911af12ef324	6.916678456279025e-08
95	0x3fc1d4b65d639422	0.13930396614083046
96	0x3fc3264f8d64e2ce	0.1496066513443765
97	0x3e7a34dc4150b74f	9.762676740694355e-08
98	0x3fd9999b5e517847	0.4000004216267183
99	0x3fd3e8df48bd6dfc	0.311088391337506
100	0xbe60dc854aa32923	-3.140682143657996e-08
101	0xbe7b290feaf701ed	-1.0118037140680006e-07
102	0xbe7f0c8fc266240a	-1.1566679400920319e-07
103	0xbe80357fe4620776	-1.2076633221577209e-07
104	0xbe7e293baed0f486	-1.1235873005693423e-07
105	0x3fbe1305845dae12	0.11747774583425777
106	0x3fc5f1ade5d3b844	0.17143796655676813
107	0xbe8400d46c271c70	-1.4903576157755512e-07
108	0x3fd9999991a301c6	0.3999999925836416
109	0x3fd3e8d0bf568a40	0.3110849255118957
110	0xbe7d29e0fc17745e	-1.086428360811674e-07
111	0xbe807c99b627b2f8	-1.2283563950669078e-07
112	0xbe82aaa77a83950c	-1.390771420313155e-07
113	0xbe8494579cbd7158	-1.5332893920750245e-07
114	0xbe81e3f67b995c50	-1.3329446151247418e-07
115	0x3fc0b79493bf06be	0.13060242857141263
116	0x3fc443e1da824a6a	0.15832160157568193
117	0xbe86b961b126e5c5	-1.6930808806134557e-07
118	0x3fd99999c04f2fa5	0.40000003605086426
119	0x3fd3e8ae8053bab0	0.31107676059665845
120	0x3e55f1cdcd3cfe54	2.043745157766262e-08
121	0x3e656f735a000ec2	3.992645791764118e-08
122	0x3e69a049078d4393	4.773235757225129e-08
123	0x3e6d2c0a1e6adf57	5.433713905683373e-08
124	0x3e658b8fc8ca3002	4.01309928388155e-08
125	0x3fc41b10b3fad3f2	0.15707596576763155
126	0x3fc0e01b0113bbae	0.1318391566523735
127	0x3e7145e9bdd15030	6.434730388918504e-08
128	0x3fd99999586fd9db	0.39999993931215067
129	0x3fd3e8cfae6a0cf2	0.3110846713318117
130	0xbe977167620f34f3	-3.49327679724533e-07
131	0xbe87c448d8afa186	-1.7707598617902427e-07
132	0xbe8905edd1e3d7db	-1.8643707106580918e-07
133	0xbe9068d48dcdf804	-2.445205050035121e-07
134	0xbe868bce76d76997	-1.6798167783058867e-07
135	0x3fbec0a558cc0a1b	0.1201270429410574
136	0x3fc59b510ec0158e	0.16880238743048576
137	0xbe899eb79934cb92	-1.9088379286379686e-07
138	0x3fd9999d2a9b2205	0.40000085030308724
139	0x3fd3e8967d4ce2f6	0.31107103573189876
140	0x3e6cc234e82df903	5.3567103661620415e-08
141	0x3e4df01c35c3950a	1.3940935232992027e-08
142	0x3e418e08e4ac77c2	8.174601569924177e-09
143	0x3e466c356a7c5f79	1.0441378719578725e-08
144	0x3e325af9fa81034b	4.2736942110759915e-09
145	0x3fc0ac9e1093ef94	0.13026786622492337
146	0x3fc44ed9497827a5	0.1586562737214169
147	0xbe35e9c87b503390	-5.1020680362957424e-09
148	0x3fd9999a27fa65ce	0.4000001325999535
149	0x3fd3e8a9cf5ac2e8	0.311075642103829
150	0x3e8017a70677c410	1.1989766622548156e-07
151	0x3f8ec8222fd2e8e4	0.015030161938160487
152	0x3e77b0e20aeb6c08	8.825566298212121e-08
153	0x3e7f00061fb09994	1.1548434734939126e-07
154	0x3e784e0f6ed0b738	9.054289380812002e-08
155	0x3fc55317f88687ab	0.16659831652674248
156	0x3fbb7720bf5f3324	0.10728649780430694
157	0x3e7956bbcf507cfd	9.439439792356001e-08
158	0x3fd9999af0710b15	0.40000031929609864
159	0x3fd3e8cdafc28216	0.3110841957477829
160	0xbe7b06a4c3b489d4	-1.006795153258251e-07
161	0x3fc40d370671738e	0.15665328802688488
162	0xbe71745e87ce1e3a	-6.50233306765166e-08
163	0x3f8a18e562006e74	0.012742797902368631
164	0xbe70221ff32d1580	-6.01012260350829e-08
165	0x3fcd8ca671837470	0.23085480253840585
166	0x3fb8f4df6e7d3566	0.09748646209228226
167	0xbe69fa8af2251e34	-4.838906721371573e-08
168	0x3fc8793681964ef6	0.19119912459847627
169	0x3fd3e8782311bd52	0.31106379914031834
170	0x3f8a4f4c5f3d1d60	0.01284656205792939
171	0x3fd1a32a5d907b38	0.2755838311876917
172	0x3f901c127b12e19a	0.015732086908174382
173	0x3fa71ae9f531c0a0	0.04512721174330747
174	0x3fa85f1a1f756b7a	0.047600571003122163
175	0x3fce105f8c670957	0.23487467151250982
176	0x3fa3da2457f3984c	0.038773666130325596
177	0x3f80ab3d1cc60f28	0.008139111939051327
178	0x3f850de652c58882	0.010280417824734881
179	0x3fd3e81c2897ae6a	0.3110418697749312
180	0xbe819b1ac141e634	-1.31174005549814e-07
181	0x3fb5151cfe20fd58	0.08235341266935359
182	0xbe7ce011f83df9ea	-1.0756877882702623e-07
183	0xbe8231dc4d19d3ce	-1.355615837809801e-07
184	0xbe7abdbf4cab3479	-9.961873385506013e-08
185	0x3fc90d5cbb8a07a6	0.19572028309999928
186	0x3fbd0551f0e7e502	0.11336242801180066
187	0xbe7f93aa0a0799d9	-1.1763279639913444e-07
188	0x3fd30af5436124ce	0.29754382686639935
189	0x3fd3e7c31e698780	0.3110206410402654
190	0x3f8a018082dbeaba	0.012698177331448835
191	0x3fccb12cbccd7894	0.22415694445493684
192	0xbe690e8c10c66878	-4.667197303909538e-08
193	0x3f9e787db062f56d	0.029756511584073154
194	0x3f4615729b5d3acc	0.0006739434818231137
195	0x3fce46bb3c979e43	0.23653355082136515
196	0x3fb4b9f5ff236010	0.0809625385185202
197	0xbe62ad5dc62b6d21	-3.4789018573637023e-08
198	0x3fbaae2472721e97	0.10421970171057136
199	0x3fd3e767260d877c	0.31099871364687437
200	0x3e781f49db8d74f7	8.986227485520492e-08
201	0x3f8a0f940774ae16	0.012725025632412328
202	0x3e70a83e5815718e	6.20529103842502e-08
203	0x3e770f23a402c14c	8.59019815304145e-08
204	0x3e70c92502088b15	6.253168339428954e-08
205	0x3fc4571c5ee96bd6	0.15890841135373418
206	0x3fbe0b43dd5d814f	0.1173593917315021
207	0x3e7207e9cab0bc44	6.717037830181132e-08
208	0x3fd9999a95ef09a9	0.4000002350041095
209	0x3fd3e78818532071	0.31100656867466286
210	0xbe7fef3c4d12d9ec	-1.189653347108161e-07
211	0x3fc1e9ee9e816bc6	0.1399515413239369
212	0xbe749eabc1a5d0d8	-7.681477179837647e-08
213	0x3f464479f4c3bf3c	0.000679549740679498
214	0xbe72bfbb4a8a76a4	-6.984528745165815e-08
215	0x3fcc703ec0e7bab8	0.22217544955443258
216	0x3fba0349d95222c0	0.1016126781052078
217	0xbe6dfbe57a663959	-5.5849496849370856e-08
218	0x3fccbfa373718d6c	0.22459834229367048
219	0x3fd3e7243c9455fc	0.3109827605815949
220	0x3f837fc34366d8e8	0.009521031851232611
221	0x3fd1573b06fc566a	0.2709491317958511
222	0x3f9331ab98af581c	0.018744164652012882
223	0x3f9eb9c2168d1cb1	0.030005486132065943
224	0x3fac5299b1ed45ec	0.05531769082029911
225	0x3fcdd9817434672d	0.23320024656350694
226	0x3fa27ff8c69eb7b4	0.036132597203831024
227	0x3f87e03902708626	0.011658139597844185
228	0x3f98130b24da37ea	0.023510145305912923
229	0x3fd3e6ca807dcbd4	0.310961366157412
230	0xbec0671b130337e1	-1.955360993211538e-06
231	0xbed67df334071c81	-5.362508830270637e-06
232	0xbed8a94e5717ee23	-5.879724413567223e-06
233	0xbed93b44440ea817	-6.015660859151983e-06
234	0xbed60aa4f31da8c6	-5.255122049389009e-06
235	0x3fbe2d8f5c525a95	0.11788269046733497
236	0x3fc634e1a117e8ad	0.1734888111676062
237	0xbedded9eebfc26bd	-7.13544039832877e-06
238	0x3fd99965fe89cbb7	0.39998769623997127
239	0x3fd3c149eaee57b8	0.3086724085090924
240	0x3e71ce31df447cd2	6.63304645137707e-08
241	0xbe373cb92bf3b010	-5.41033234813117e-09
242	0xbe507eda21b2865d	-1.5362646360448524e-08
243	0xbe45437d23e2a334	-9.901648497937032e-09
244	0xbe54ff924521eb67	-1.955621471053094e-08
245	0x3fbfa6ad37e3ace6	0.1236370336006761
246	0x3fc576c9a2f59fd8	0.1676876111698664
247	0xbe651b3e99dc837b	-3.931377821746254e-08
248	0x3fd9999a0e5892d4	0.4000001087281764
249	0x3fd3c155eb1e58d0	0.30867526970668013
250	0x3e77643d07f57bad	8.714033760324611e-08
251	0x3e7bb68d62db9163	1.0323932350290991e-07
252	0x3e7e9d1846a7430e	1.1404473957496262e-07
253	0x3e80cd04f75ab20c	1.2517613938912898e-07
254	0x3e7c2ee7ccbe49de	1.0499069274934372e-07
255	0x3fc157b151f9594b	0.1354886675132526
