analysis/portfolio_exercise/output_data/mle/archive/mpc_weights.npy (npy, 341632 bytes, 1 tensors)

array f8 [5336, 8]
00000000: 0000 0000 0000 0000 0000 0000 0000 0000
00000010: 0000 0000 0000 0000 0000 0000 0000 0000
00000020: 0000 0000 0000 0000 0000 0000 0000 0000
00000030: 0000 0000 0000 0000 0000 0000 0000 f03f
00000040: bac5 fb60 0300 c23f da7f a528 6bad c0be
00000050: ee86 c337 ceef cf3f 0cbe a199 4b04 d03f
00000060: 90e9 4a53 1e08 c1be ee48 6176 5e69 bfbe
00000070: 02a2 04b8 5157 a43f 3d37 a41a fa78 d43f
00000080: 12e0 fcd8 06a9 c33f 0e96 93cc b7d2 83be
00000090: d972 4c6f 480c d13f ba81 a648 9fa6 d03f
000000a0: 6413 a9c2 fc38 87be 5093 1636 2e23 86be
000000b0: 1817 c497 f7e4 82be 1ab7 5b7c 9778 d43f
000000c0: 1688 686d acee b13f 7f92 51b8 8181 7abe
000000d0: 896a c9de 5e78 c83f e654 b4d9 cd05 c13f
000000e0: 8a8d e0b1 be84 82be 2299 5cba d601 b43f
000000f0: 1067 95e3 2299 ca3f 7812 5666 3878 d43f
00000100: ba89 b6a5 0296 a03f 2bd3 7d79 fe7a 7dbe
00000110: cec3 ec80 4780 c53f 3ae3 4f0b cfe9 b83f
00000120: 3912 a5ba d058 85be 5034 740f f264 ba3f
00000130: 248b 1762 9ee1 d13f 2a41 e762 ce77 d43f
00000140: daa5 2616 de53 a73f 469b 92db 0240 7cbe
00000150: 57d6 3b82 44d1 c63f 1925 b5b4 b669 be3f
00000160: bc4c d28e 2129 84be 427b cb6d 7124 b73f
00000170: 176e f90a e0a3 cf3f 7ca1 7100 6977 d43f
00000180: 8234 257f a6de a23f 1f44 539d 9814 7ebe
00000190: c714 46fb 754a c63f fc29 0d08 b551 b83f
000001a0: fa15 4eed 80b8 85be d8c0 1fc2 90b0 bb3f
000001b0: 455d 7202 6307 d13f 9c64 bce3 fc76 d43f
000001c0: d19a 16c7 49ce a03f 094b 7124 029c 7dbe
000001d0: bae7 ba3a b625 c63f 366a 89d1 c9d4 bb3f
000001e0: 809d 6092 bb4f 85be 2218 81c1 7f43 ba3f
000001f0: f73f 8fd8 b7d6 d03f ef32 868d 9276 d43f
00000200: 4506 a468 f158 a13f 000a a6f0 2aea 7dbe
00000210: a051 03ec 353f c63f c62a a543 c7c7 ba3f
00000220: 48d9 18b4 b591 85be 21a3 1035 717e bb3f
00000230: e4e5 5ed7 92ad d03f 70c8 be0b 2776 d43f
00000240: 65be 39a4 f5b1 ab3f 82aa 5b16 393f 7cbe
00000250: 8a46 f400 beb0 c73f a4bc 19f1 be04 c03f
00000260: 40f1 4715 caf7 83be 0a70 bd18 6d22 b83f
00000270: 155f 005f 4d61 cc3f 2c2f a5ed c175 d43f
00000280: 3634 6154 d9de b53f 12d6 2e20 c66f 7abe
00000290: 5c28 6b47 c62a ca3f 02d2 82f6 125a c53f
000002a0: 97a5 87c9 7bfa 81be 6c36 fbc8 c496 af3f
000002b0: 22f9 cddf 42bb c43f d81c a1fc 6375 d43f
000002c0: a1e8 9dc6 2929 ae3f 0ada 6bdd fdfa 7abe
000002d0: 8c0b 2e0f aa74 c73f 52fa 8315 1056 c33f
000002e0: 82ba d20c 62d5 82be fe40 6c4b 7e3b b53f
000002f0: ac49 1668 3723 ca3f 5ca2 a970 0375 d43f
00000300: 55f7 bd74 60ab 8d3f 4296 d32b ab60 7dbe
00000310: 3a64 4ac2 10fa c33f 8480 deef 1e5e bd3f
00000320: 066f f599 1656 85be 2a87 dfef e563 bd3f
00000330: 3633 3dc2 83f0 d13f 5614 66c1 9874 d43f
00000340: 01d6 17fe a308 963f 5b9f 8323 904b 7cbe
00000350: bc93 27f2 92e2 c43f f9ae 13af 8b06 be3f
00000360: f221 0a28 6864 84be eaaf a57f ee66 bb3f
00000370: 64b9 df7e 9c5e d13f 44d4 f650 3274 d43f
00000380: 00e2 649f 0612 983f b7a4 53b8 8a35 7cbe
00000390: 0ca1 79a3 61ef c43f 9d99 6a03 c857 bf3f
000003a0: 3f5a d5e2 de46 84be d859 8272 0d8c bb3f
000003b0: 1e3f d93f 6eda d03f 36fe 2d3a cc73 d43f
000003c0: 08bf 48f4 77ca 9f3f e096 5e3e 10a0 023e
000003d0: c8d0 4717 ca90 c43f 02a5 ac57 5994 c13f
000003e0: ee64 9d86 3fc7 653e fcb4 20ae 6f7f bb3f
000003f0: d598 9c42 f039 cf3f fc37 3790 f273 d43f
00000400: e677 b8ff 807f ab3f 22f1 ae50 e2f1 7e3e
00000410: f82f c4fb d99a c53f f137 7ad4 c90f c23f
00000420: ecbe 2806 6b60 833e a020 6ab2 8882 b83f
00000430: 22cb 7451 f64b cc3f 704f ad8b 1f74 d43f
00000440: 5ff7 c3a5 6b23 b73f 187c 9c5a 44aa 32be
00000450: 1a33 04e8 6a9e c93f 1543 2d52 8721 c43f
00000460: e95b 5761 c5ad 703e b639 f91b 8fde b13f
00000470: dac9 d965 72d6 c43f bc9e 70c1 4e74 d43f
00000480: c0c0 0547 b0cc b33f 88f9 c6f9 8728 90be
00000490: 7eb4 23d5 4255 c73f 71de aedb 9afa c23f
000004a0: 3692 5a1a f653 85be 7489 5ad7 6cf4 b53f
000004b0: e9e9 7cc8 afe6 c73f 54e7 f7a8 7374 d43f
000004c0: 753b 9d79 8e95 bb3f 273c 9fb2 3e97 79be
000004d0: fc42 c7ca c808 cb3f 7597 725d 4f40 c73f
000004e0: eca9 53ad a3e9 80be 9a45 1750 cfdd a83f
000004f0: 015b 171f 7bcc c03f fbef b8c1 1974 d43f
00000500: a9f7 fbe5 6993 ae3f 090a cf22 4226 8b3e
00000510: b2db 0e56 9c49 c63f 88ca 5189 b967 be3f
00000520: ecc4 9588 658a 923e 234b 1bc8 5916 ba3f
00000530: 7195 d733 f0e9 cc3f 131a eea7 4574 d43f
00000540: a8ef 81b9 cce5 ad3f 844d b4a2 07b0 643e
00000550: 1298 a72b 650b c63f 35e4 40b3 206f bf3f
00000560: 5878 829b 14b1 613e 840f 0a1d f5d3 b83f
00000570: ec97 31e5 b370 cd3f 0c97 7d1f 7474 d43f
00000580: b4fb a6ae a133 b63f 4abf bc41 18f7 7abe
00000590: bbb1 5c25 8b55 c93f 5199 9fda 75bb c63f
000005a0: c2df 30e1 4319 82be f3af ec3b 75f4 aa3f
000005b0: 2280 2c0b e82f c53f 32d6 0e64 1574 d43f
000005c0: 9503 d609 9c37 bc3f cc5d c93b 5e2c 79be
000005d0: 765c efda 1340 cc3f 90f3 9edd 74ad c83f
000005e0: 0c9d 6bd5 e66f 80be 46fd f1ad c001 a03f
000005f0: 9a3e a980 c00e c03f 2ed9 8133 bd73 d43f
00000600: ee8c edd4 0346 c33f 10ee d630 61ec 80be
00000610: 1c01 0e19 b6cf d03f 7d4b 6836 2d24 cc3f
00000620: 2af3 183b 28d1 84be 1d4a 01c6 0a41 83be
00000630: 02d8 e966 343e a83f ebf6 879c 6c73 d43f
00000640: b3fd 77e9 601a c63f 2efc 97e0 e5c9 923f
00000650: 8c97 9faa bf29 d23f 102e 188c c152 ca3f
00000660: 8bc4 d29b 9bbb 82be 064f b3a9 2b08 82be
00000670: 9a9c 05a1 5606 81be 044e 056b 1273 d43f
00000680: 1f65 a893 f175 ad3f d620 25b5 6ce5 7abe
00000690: a8d0 fa86 170a c73f 6e1e ba42 610f bf3f
000006a0: 3637 3b8e a709 83be c487 13b1 7c66 bb3f
000006b0: e1ba 1a7e 1978 cb3f 858e 15d2 b272 d43f
000006c0: 06a8 3e29 3862 9a3f 8e4a b2b2 ed96 7dbe
000006d0: 9c02 39b1 ba9c c43f a474 817b ecaf b63f
000006e0: 3c1b 77e9 d460 85be 8ceb 2751 952c c03f
000006f0: 8a45 5599 f0d6 d13f bcd5 92e5 4972 d43f
00000700: 1ef2 cfb0 7a53 a93f af4c 525b 8f82 47be
00000710: 9b8e 3ed0 6ca7 c53f cc49 d471 ceba b33f
00000720: 7c7f 8c60 a21d 573e 3ff5 48a1 75e3 bf3f
00000730: a46c 9ade e9a7 d03f 2ca9 0253 5f72 d43f
00000740: 18dd 9075 9f4b a23f 527b 72ff 622c 37be
00000750: d081 dae7 4501 c43f 19ac d549 2276 b13f
00000760: e3a6 856d 2c59 5d3e f6bc bad7 a5e7 c13f
00000770: 147e c414 16f2 d13f 17bd b372 7772 d43f
00000780: 0542 2151 0018 82be 22f7 2c41 1027 85be
00000790: 68eb 6e9c 079b c03f 5b35 d58c 31e9 bd3f
000007a0: e8e6 8b6a 48c8 88be 8018 e275 9ed9 c13f
000007b0: 9d9d 07f5 4ed9 d23f b42d 069f 1372 d43f
000007c0: cee8 304e 4378 643f 073c af26 6522 7cbe
000007d0: a9a4 7877 952c c23f 18a6 52d6 87b0 ba3f
000007e0: 5aaf c991 1950 84be d27e 5775 b24c c13f
000007f0: 6ebe ad83 9bfc d23f 02fa eb1c af71 d43f
0.0 0.0 0.0 0.0 0.0 0.0 0.0 1.0
0.1406254027893235 -1.9881029561935443e-06 0.24950578425255493 0.25026216509920185 -2.0303383741735557e-06 -1.8722771186930454e-06 0.03972869273485814 0.31988384820657584
0.1535957870016778 -1.4769373127898984e-07 0.26637469166761957 0.26016981215255053 -1.7302190376453736e-07 -1.6493666081282457e-07 -1.407742721353144e-07 0.3198603357731017
0.07004811926938745 -9.874211855246209e-08 0.1911734187913974 0.1329896271715036 -1.3797383585741217e-07 0.0781530575737617 0.20779834854584367 0.31983766549846093
0.032394488075869046 -1.0982321751817979e-07 0.16797727389487566 0.09731763864682544 -1.5904705936478494e-07 0.10310280682843254 0.2793956716470112 0.3198123899319564
0.04556173344037591 -1.0523961337331617e-07 0.17826134070462515 0.11880056297117782 -1.5020868407832716e-07 0.0903998272947151 0.24718857322555784 0.3197882179579421
0.036854937573118654 -1.120584223913164e-07 0.17414736527658745 0.09499675222938458 -1.6183195463926784e-07 0.10816292514187198 0.2660758518117812 0.3197624420150278
0.032823854019900296 -1.1030363920973034e-07 0.17302587382965645 0.10871564260143249 -1.5878271958476165e-07 0.10259245371079875 0.26310535572429167 0.3197370893547448
0.03388170626022861 -1.1144100767714662e-07 0.17380403541632194 0.10461087609761952 -1.6070290524841788e-07 0.1073981051018902 0.2605940917233893 0.31971145770069764
0.05409209851938782 -1.052281440556847e-07 0.18508124395934927 0.1251448323487 -1.4877265165625927e-07 0.0942753014946335 0.2217194284319183 0.31968734939140364
0.0854316550259718 -9.848407249334422e-08 0.2044303749774511 0.1668113425890994 -1.339499007401692e-07 0.06169714883217811 0.16196475913961544 0.31966495199999434
0.05890780019304143 -1.005099571174774e-07 0.1832478117103985 0.1510639290863361 -1.4032071363663618e-07 0.0829390463006838 0.2041997202146154 0.31964193346224135
0.014487031519589225 -1.0944013247338436e-07 0.15606889235348992 0.1147174201601065 -1.5896769143651805e-07 0.11480557543066242 0.28030485123308624 0.31961649786564317
0.021517336257565137 -1.0540771533710254e-07 0.16316448997454625 0.11728737854326345 -1.5193383619641863e-07 0.10703936211001489 0.2713996161463881 0.3195920744577203
0.023506263235704594 -1.0508726518459623e-07 0.16355534059699328 0.12243318637283669 -1.5107421928269118e-07 0.10760578199037896 0.2633319495698617 0.31956773454291765
0.031045793805048155 5.420660558778407e-10 0.1606686223673306 0.13733975201584064 4.056526921201412e-08 0.10741327286878638 0.24395564320111043 0.31957687457622774
0.053707152572527936 1.152785850518627e-07 0.1687881926849284 0.1411068236815818 1.4436716629225332e-07 0.09574179035019137 0.22106818177561488 0.31958759918528923
0.09038422390946498 -4.345808527085167e-09 0.2001470215695001 0.15727321159877108 6.213334587751222e-08 0.06980223114917447 0.16279439900570375 0.3195988549291362
0.07734204992243843 -2.407778028310448e-07 0.18228946120453665 0.14827285505974744 -1.5890578912882414e-07 0.08576088197381698 0.18672749795389557 0.31960765362565735
0.10775080174538039 -9.533316061505461e-08 0.21120557690894504 0.1816500860488152 -1.2600908997431561e-07 0.048567274595949075 0.13124026315809803 0.31958621900753287
0.059718427013634674 2.0227914046377776e-07 0.1741214199261925 0.11877021410490773 2.7627664474841755e-07 0.10190354476371204 0.2258892300734874 0.31959668540403746
0.058393857617346 3.853368854048831e-08 0.17222275382590674 0.12278942467027394 3.295339773386461e-08 0.0969842143913962 0.23000191393947433 0.31960776400806945
0.08672533525439868 -1.0045324966008048e-07 0.19792308162995007 0.17759583640072177 -1.3484576352902978e-07 0.05264631611348127 0.1655244879302709 0.3195851781013942
0.11022353401314285 -9.37778982882581e-08 0.22070549192605754 0.19279347249348833 -1.2246605748183596e-07 0.03126337169032438 0.12545019418984255 0.3195641520500371
0.15057418724891342 -1.2608884285095547e-07 0.2626776928591583 0.21985402256595057 -1.5509888622198726e-07 -1.4345400512151813e-07 0.047349584162404326 0.31954493795625066
0.1726800098403892 0.018348304589377466 0.2837981382602883 0.20565051403569656 -1.3957055769933624e-07 -1.3434824528443226e-07 -1.2684434170658712e-07 0.3195234341739879
0.057540463709481175 -1.0019611565881987e-07 0.1799954804497521 0.12132842902257732 -1.4184201468095346e-07 0.10703257868911381 0.21460264832918255 0.3195006419757436
0.025765302197818606 -1.1022971750850321e-07 0.16103299764110524 0.08862188353801287 -1.5928036554824634e-07 0.1263605734128216 0.2787438866990547 0.31947562617582625
0.04946502121308448 -1.0947696841331417e-08 0.16917190712148486 0.07706918982538652 2.152822811956169e-08 0.12456450641271476 0.26024862993808484 0.3194807348869684
0.03573320684557241 -5.39547428189949e-09 0.15628885098432344 0.06820883085826814 2.733276613498413e-08 0.13988183053650233 0.28040077236252725 0.3194864864480719
-1.3480897870450975e-07 -1.5759908985641766e-07 0.12973113191932417 0.11683950126935853 -1.8464293318598206e-07 0.13945370441451033 0.2945134537571564 0.31946268586826965
0.002498752075124156 -1.0480864324968968e-07 0.14198559125478497 0.10425614340297107 -1.5134282528876137e-07 0.13515310983256384 0.2966679368900945 0.3194387228431027
