data/mpc_weights.npy (npy, 310144 bytes, 1 tensors)

array f8 [5536, 7]
00000000: 0000 0000 0000 0000 0000 0000 0000 0000
00000010: 0000 0000 0000 0000 0000 0000 0000 0000
00000020: 0000 0000 0000 0000 0000 0000 0000 0000
00000030: 0000 0000 0000 f03f 7fdc 23db f1ef ce3f
00000040: b036 0a51 df11 9c3f 3d42 f052 372b d83f
00000050: 9c51 fddd a815 d63f 0eaa a526 3bbd cdbf
00000060: 2498 c1d8 afb2 92bf 9994 8880 d18f d03f
00000070: 652e 7009 f78c ce3f 8e94 4c20 e2c9 a13f
00000080: f845 4915 4d2f d83f 6fa1 646b 8e77 d53f
00000090: 285a 96f3 247d cebf 305b 0b4c c4fb 7dbf
000000a0: 3e0a 8341 ee8f d03f 70ef 7d33 b252 d23f
000000b0: 602c 8702 a99d d1bf 1a41 3e96 a659 d83f
000000c0: 3aad 2a49 cc84 a43f 12fb 5519 3005 933f
000000d0: 5d3b 8ffb b7a0 d23f 8477 9ab2 ab8f d03f
000000e0: 2698 ac7d cb5b d23f 585e 4b80 42e8 d0bf
000000f0: 4ece c29a 5859 d83f 8a3c 1dd5 638b aa3f
00000100: 3a33 0cef fe71 783f 6a72 d679 6ef0 d13f
00000110: a0a9 b877 7b8f d03f 88f6 3ccb 38d0 d13f
00000120: 58a4 818c f1a8 ccbf 2c2a 40b3 dc58 d83f
00000130: d793 3b26 c818 b93f c881 e59a 772c a1bf
00000140: a6d6 f883 a6f6 ce3f 3291 9bef 6c8f d03f
00000150: a7fa bba4 2971 d33f 3bd1 b1e6 5487 d3bf
00000160: 000e e1f7 9c1f d93f 3bad bb3f 0d58 8e3f
00000170: 8997 561f aad6 913f e294 bb89 4257 d43f
00000180: 3093 84b4 208f d03f 8f88 f768 f959 d33f
00000190: 7a85 237e b4fa d1bf 7948 1f26 4898 d83f
000001a0: 2e69 adfe 01ff a73f b683 2146 20fe 8dbf
000001b0: 128a 29da ab69 d33f ac42 5dd7 d78e d03f
000001c0: b9b9 5647 cbca d23f 7b73 453c b2df cfbf
000001d0: 16ca b27a 470b d83f 0b1d b231 7d5c b33f
000001e0: d2ec 957d dd11 9dbf 4fda d3c8 0c85 d13f
000001f0: 2a48 bf1e b88e d03f d401 cfb3 bf2e d23f
00000200: f9cb 67ba 6d61 ccbf 30be 28de d2bf d73f
00000210: d107 ef86 86ab ba3f 0242 d88a c003 a6bf
00000220: 77d8 58a4 1a92 cf3f 641f b468 ad8e d03f
00000230: e6c0 16e2 5855 d13f 3e4b 5858 2e49 c4bf
00000240: 6c7d d5e0 87c8 d73f ca0a f7f0 5587 c43f
00000250: 5d55 0875 5541 b8bf 4757 a2a9 f689 c83f
00000260: fe91 6b79 658e d03f 362d 5de3 9bfb d03f
00000270: 7746 8fe5 3776 bcbf 6dad 159e 59db d73f
00000280: c2a6 7d33 6837 c83f 5bcb 6610 4c8e c0bf
00000290: 0bc3 2fd3 6dc7 c33f 8a6f d77c 538e d03f
000002a0: 988e 8f80 cbab d03f bd53 96f1 2d4b bbbf
000002b0: e817 492b 60b2 d73f f36a 5850 e666 c83f
000002c0: c4a0 8529 748e c0bf cf1d b30d 49f4 c33f
000002d0: 9bf6 5136 428e d03f 3005 6003 44fd cf3f
000002e0: 201b 3f2b 5483 a6bf a0c3 b9bf 0855 d73f
000002f0: 37fb dce2 faa3 ce3f 1f3b 017b ba13 c6bf
00000300: 6f04 4a31 c698 ba3f b905 ad03 6e8e d03f
00000310: 72aa 0786 a48d d03f 5397 1610 29ea 973f
00000320: 3968 450f 38f8 d83f c0ae 238c 3a9c d13f
00000330: f214 4e5e 75ba cebf b889 f432 296f a13f
00000340: 3ca9 38d6 9b8e d03f 56c2 ea43 dea5 d03f
00000350: 6d7c 72d6 acdd 8dbf 46ba 3ed6 fc85 d83f
00000360: aae0 d353 f79a d03f 49f6 af2a b0bd cabf
00000370: 0ea4 4ea7 2cc1 af3f 957d 0a79 cd8e d03f
00000380: e60f 8d42 66ae d03f 2ee4 4e48 5d52 babf
00000390: 7ee2 4295 0b69 d73f 9a18 4925 4a30 c93f
000003a0: b404 1f14 c11c c0bf 0a84 a0f2 25c9 c23f
000003b0: 5239 5ff8 cd8e d03f 6d8c 2287 76ec ce3f
000003c0: 4022 dd8f 3b91 b53f 96cd 60be 3e62 d63f
000003d0: 54bd 0afe 0cd8 d33f 8600 53bb 196b cfbf
000003e0: f7b4 fae7 90cb 513f ef59 c368 eb8e d03f
000003f0: 826e 6618 8469 d13f cf82 a9cf d68a bb3f
00000400: ba8c 981e 9999 d93f 3c05 fcf2 0e41 d43f
00000410: 4c18 dc9c 71c4 d2bf 201c 8810 dd22 a2bf
00000420: 38b6 78c2 d6c3 cd3f 8253 279e 328d d13f
00000430: 27a1 61d1 4312 b83f fb60 fc7f 9799 d93f
00000440: 8a74 614a 2b19 d33f 65fe a0b1 3b93 d1bf
00000450: 4b15 875b 1f30 99bf 3ac4 0896 6ec3 cd3f
00000460: fd55 a15e 199a d13f 1e97 4a08 4a86 b8bf
00000470: c883 f64a d318 d83f 883c 8055 5546 c83f
00000480: 68e9 1be0 a1f3 bfbf 0717 6db2 c4cd c23f
00000490: 83e8 3a99 02c3 cd3f d11e 9418 d9cd d13f
000004a0: 8a3d 9f55 f486 bfbf ac29 cc13 113d d83f
000004b0: 5694 7003 0630 c63f d8f8 7211 8c90 bbbf
000004c0: 6402 7810 4e83 c53f 070a 05c7 97c2 cd3f
000004d0: d04b b1e5 9f54 d13f b28b 598a 3cc6 b7bf
000004e0: dc0a 85af 1a1e d83f 8c99 de68 94de c93f
000004f0: d806 c0d7 9980 c0bf d957 427c 7cdd c13f
00000500: c5d5 810d 32c2 cd3f f4d6 0a5f e79e d03f
00000510: 9d6a 4d90 6cfb 9f3f b8bc 7581 1802 d83f
00000520: ae7f 57d7 7340 d13f 9659 118d aaa1 cabf
00000530: 2384 3ce2 1876 a43f 3db5 d252 cfc1 cd3f
00000540: fa35 05f9 0692 d13f fca7 6006 669a b7bf
00000550: 88c2 3553 c295 d83f dcf5 a473 0920 c93f
00000560: eb64 496d 33b6 c0bf 2a73 8006 6b52 c13f
00000570: 4c7a 045e 5fc1 cd3f 2c07 b4a0 2cc7 d03f
00000580: dd35 8d30 0e0a bb3f 7460 cb27 bd0c d83f
00000590: b429 1df3 6726 d23f 34cd e7f2 cb07 d0bf
000005a0: 643d 9add 9db3 82bf b14e f234 27c1 cd3f
000005b0: dbb0 db52 7210 d23f ffb7 3029 52a5 c43f
000005c0: 1848 5add b108 d93f 6cdd 0d32 3f27 d03f
000005d0: 7c81 43b6 d1fc d1bf c0a7 d904 88b4 a3bf
000005e0: 83c0 d280 acc0 cd3f bc6f ab90 de3f d23f
000005f0: 7efd efdb 3ae0 c73f 70a5 5b07 ffb0 d83f
00000600: 0ea9 57ec 1552 d03f 2adc c9dc f1dc d2bf
00000610: cc98 2f35 b2b2 a9bf b340 d864 6ec0 cd3f
00000620: 495e 2154 fd3c d13f 059c 2a18 d6e0 d4bf
00000630: 7cf4 64a0 a547 d73f 5651 481b 4a36 b03f
00000640: 0cc6 27c1 93b4 a23f 70b3 42ce c317 d73f
00000650: a261 c4ac 94c0 cd3f 28de 470c dedb d03f
00000660: 5cc4 77d7 413e d5bf 0abe 452e 8ae7 d73f
00000670: 859f 1e78 4476 ad3f 9468 eee4 e5f9 a43f
00000680: 083b c1ef 7a4c d73f 9ebf 00c3 b2c0 cd3f
00000690: 42bf 5b59 c45d d03f d6fe 72ed 3563 d5bf
000006a0: c2eb 74ed 093d d83f e1a6 3475 ad7c ad3f
000006b0: d15e b99d bb85 a43f 4632 2ec4 b2a7 d73f
000006c0: 205c 1f80 cfc0 cd3f d7e5 32bf 69e6 d03f
000006d0: f6d4 23e7 9f80 d5bf 2ee3 98db 44d0 d83f
000006e0: 4ada 9beb 14bd a73f 1260 5c74 b946 a53f
000006f0: b0e9 b6f1 fa48 d73f 2914 321d f9c0 cd3f
00000700: 059b 65aa 6cd4 d03f 1a3b 73b9 5255 d4bf
00000710: 2041 8444 d3c6 d83f f245 cc56 37b4 aa3f
00000720: 73b4 7331 c60f a03f 3f20 d42d fe80 d63f
00000730: d02f 46d7 29c1 cd3f 29e7 8da3 5fe8 d03f
00000740: 8740 388b 9f83 d3bf 9dbd 48f5 ac46 d83f
00000750: 1b02 73d6 0050 b43f 62f5 95b9 ad37 953f
00000760: f67c 73b4 420c d53f 811e 3259 aac1 cd3f
00000770: 44d3 b0c8 7781 d03f 6a48 5621 78cf d2bf
00000780: 52ba 6c1f ad15 d83f 5e42 1f08 1bcc b63f
00000790: 882c ad62 bb50 903f 6e02 14e9 3f9f d43f
000007a0: 8087 baaf 01c2 cd3f 3325 90f0 687c d03f
000007b0: c0a7 8b31 dfb2 d2bf a689 9bf6 7d3a d83f
000007c0: 0578 e1f9 7cae b63f 020f 6fce 85e9 883f
000007d0: 3218 1b35 45a8 d43f 7c8f e050 8fc1 cd3f
000007e0: 171d 4d34 755c d03f 2c5f 2c8f 2566 d2bf
000007f0: d46c 107f b145 d83f 4f85 f8f2 c0ed b93f
0.0 0.0 0.0 0.0 0.0 0.0 1.0 0.24169753265571
0.027411927529604696 0.3776377019831079 0.34507199934639643 -0.23233737361017898 -0.018259761433363178 0.2587779765329486 0.2386769100270271 0.03474337238575585
0.37788703039868166 0.3354221390495899 -0.23819410222923065 -0.00732018164190755 0.2587848319782643 0.28629736927518135 -0.27524781462552106 0.3804718463152469
0.040075668269617684 0.01857447771680671 0.2910594898830164 0.2587689632581418 0.28685271523352396 -0.26417601135969937 0.3804532538735871 0.05184471107951889
0.005968089900090951 0.2802997770138861 0.2587574643281645 0.2783338532206945 -0.22390574799217933 0.38042371277757314 0.09803439076820496 -0.03354238286806638
0.2419021744150786 0.25875399970233837 0.3037819012387594 -0.3051349881054823 0.39255451399750996 0.014816382892112947 0.01742044273637292 0.3178259224935812
0.25873582485864954 0.30236659289051543 -0.28092682188260876 0.3842945453917604 0.04686743005614101 -0.014644863262391766 0.30332466416271686 0.25871845275563987
0.29362756697346587 -0.24901416724142308 0.37568842870965236 0.0756300207450417 -0.028388462820186096 0.27374572383943 0.2587108898416114 0.28410332259593685
-0.2217232856924907 0.37108298964719477 0.10417977136879066 -0.04299737639314928 0.24664624237783858 0.2587083361145146 0.2708341796778896 -0.15848330796924331
0.37161442715110726 0.1603801180445628 -0.09474691493263294 0.19171031268040847 0.2586911855453592 0.2653569908477097 -0.11117886881336313 0.3727630657001189
0.1891908885402725 -0.1293425636373183 0.15452359020084602 0.2586868971973152 0.2604855304218545 -0.10661589763760922 0.37026218630887664 0.19064024851908065
-0.12934734370651857 0.15589249772004485 0.2586827784033205 0.24991655506895816 -0.04397070911323042 0.36456507418830064 0.23937927319817628 -0.17247706419080885
0.10389364913318543 0.25869322165462055 0.2586451825033357 0.023354188544224396 0.39015008441276994 0.27516044316756094 -0.24006526093231845 0.03405121562015573
0.2587041465764235 0.26012379295847177 -0.014582968038949507 0.38317795679441635 0.259458381522118 -0.2089138229784331 0.06202067892383677 0.25871598072441176
0.2606444978630392 -0.1028192807706467 0.365786453021009 0.19678618259985542 -0.12587750895003114 0.1467635569288464 0.2587160993106369 0.2415912780607842
0.0842473245840063 0.349746404567861 0.3100616913679535 -0.24545594832125434 0.0010861315821942255 0.25872311812182053 0.27206518538307745 0.1075872666347195
0.3999998854435024 0.3164708493132655 -0.29323997801146073 -0.03542223765185093 0.23253902908020208 0.27424302525223976 0.09402870046472299 0.39999949930781015
0.29841120017756195 -0.27461140009470447 -0.02459763523235851 0.23252661062136487 0.2750304626582361 -0.09579909040857301 0.37651521988487646 0.18964640307283198
-0.1248112842694461 0.14690455162251956 0.23251373750628454 0.2781889667535156 -0.1231529912031332 0.3787272160849635 0.17334056060750197 -0.10767436433795596
0.16806960872783627 0.23250100343473454 0.27079007559694634 -0.09286859872513167 0.3768374170360127 0.20210509415228406 -0.12892458948777263 0.13957172458020642
0.23248887691049283 0.2596987178943515 0.031232544238586447 0.37512791292733594 0.2695588686892688 -0.2080586613471495 0.0399635101478071 0.23247710746856312
0.27453779524225264 -0.09219968467428424 0.38414056898094673 0.1962901892347152 -0.1305603297831007 0.1353276998278486 0.23246376124093826 0.2621566361777805
0.10562218365995286 0.375777520047911 0.2835941194686271 -0.2504758712886599 -0.009131654095908721 0.232457066395559 0.2822538193856993 0.1612951947330998
0.3911556874892326 0.25239543808080245 -0.28105585860432547 -0.03848671969610917 0.23244243898580316 0.2851482785024435 0.1865304540551555 0.385802991090336
0.2550101097136953 -0.29473539887789235 -0.050191468231604114 0.23243503498134074 0.26934750762800214 -0.3262229190826818 0.3637479845381859 0.06332839170528834
0.03653394444326005 0.36082549231178174 0.23243959842581058 0.26341963958063497 -0.33192487756520506 0.3735070659522256 0.05754293409637427 0.040969070621217046
0.3640429822307145 0.23244318505885259 0.25572308279423706 -0.3341803377952436 0.37872551144726796 0.057591839368184024 0.040082800868444964 0.36961049230811616
0.23244661098462505 0.2640632979560826 -0.3359756238199475 0.38771172947922394 0.04636445404132823 0.04155520959301397 0.3638293610089489 0.2324515717083682
0.2629653610260195 -0.3177077113186201 0.3871353310687642 0.05215619024796671 0.03137034753476877 0.3516231010003174 0.23245738040384234 0.2641829583368343
-0.3049086436813088 0.3793136973717653 0.07934575305535711 0.0207202095530098 0.3288733255594275 0.23247269969236942 0.25790209387496454 -0.2939129186207824
0.37632301396198387 0.0890519041852342 0.015932968042119217 0.3222198272851874 0.23248311119555964 0.25759337894904205 -0.29216747129850873 0.37857007105608387
0.08859997845272012 0.012164159166679681 0.3227704065906237 0.2324694771679069 0.2556431780580665 -0.28748454076547847 0.37925374420747215 0.10128408367065343
