data/mpc_weights.npy (npy, 235352 bytes, 1 tensors)

array f8 [2673, 11]
000000 00 00 00 00 00 00 00 00 00 00 00 00 00 00 00 00
       0.0 0.0
000010 00 00 00 00 00 00 00 00 00 00 00 00 00 00 00 00
       0.0 0.0
000020 00 00 00 00 00 00 00 00 00 00 00 00 00 00 00 00
       0.0 0.0
000030 00 00 00 00 00 00 00 00 00 00 00 00 00 00 00 00
       0.0 0.0
000040 00 00 00 00 00 00 00 00 00 00 00 00 00 00 00 00
       0.0 0.0
000050 00 00 00 00 00 00 f0 3f 00 80 1f 54 61 e9 e1 bb
       1.0 -3.034350075393387e-20
000060 00 80 57 c9 e0 0f ba 3b 9b 7a 9b 9b 17 bd c9 3f
       5.518848190667986e-21 0.20108313653959872
000070 84 aa 39 f9 8a 12 c4 3f 00 80 c5 a3 ca 27 e5 3b
       0.15681588334276253 3.583870225010784e-20
000080 00 00 94 80 2d 4e 8d 3b 6d 7d 7d 74 1f 18 ad 3f
       7.7570699763737015e-22 0.05682466790198757
000090 bd 31 05 6b 11 c7 c6 3f b2 d2 62 fa 1d 02 7e 3f
       0.17795007444000346 0.007326237775647714
0000a0 00 60 51 0f b4 05 e2 3b 9a 99 99 99 99 99 d9 3f
       3.053092776331226e-20 0.4
0000b0 00 10 c9 8d e7 68 41 3c 00 e0 5c 1d 1e 64 48 3c
       1.8875724801922552e-18 2.644486681917281e-18
0000c0 9b 7a 9b 9b 17 bd c9 3f 84 aa 39 f9 8a 12 c4 3f
       0.20108313653959872 0.15681588334276253
0000d0 00 e0 be 5a 41 5c 4d 3c 00 10 d2 d3 93 64 46 3c
       3.183257935691023e-18 2.4278409867891794e-18
0000e0 6e 7d 7d 74 1f 18 ad 3f bd 31 05 6b 11 c7 c6 3f
       0.05682466790198758 0.17795007444000346
0000f0 b4 d2 62 fa 1d 02 7e 3f 00 c0 fe 2b 23 71 4c 3c
       0.0073262377756477155 3.0836816314339402e-18
000100 9a 99 99 99 99 99 d9 3f 00 f0 e7 c4 15 e1 53 3c
       0.4 4.310622696699066e-18
000110 00 30 be 74 da 54 5b 3c 9b 7a 9b 9b 17 bd c9 3f
       5.9265653093521066e-18 0.20108313653959872
000120 84 aa 39 f9 8a 12 c4 3f 00 60 ca 84 a9 57 60 3c
       0.15681588334276253 7.087399417472328e-18
000130 00 90 58 d0 a4 23 59 3c 6f 7d 7d 74 1f 18 ad 3f
       5.451202338871512e-18 0.056824667901987584
000140 bd 31 05 6b 11 c7 c6 3f b6 d2 62 fa 1d 02 7e 3f
       0.17795007444000346 0.007326237775647717
000150 00 40 bc f3 9b a0 5f 3c 9b 99 99 99 99 99 d9 3f
       6.858094743156183e-18 0.4000000000000001
000160 00 90 35 1d da 4f 58 3c 00 4c b9 4b cf ea 60 3c
       5.2718077097780875e-18 7.336677091731392e-18
000170 9b 7a 9b 9b 17 bd c9 3f 84 aa 39 f9 8a 12 c4 3f
       0.20108313653959872 0.15681588334276253
000180 00 08 90 de fd 49 64 3c 00 70 be b6 61 58 5f 3c
       8.79896415685191e-18 6.79691567675568e-18
000190 3d 6f 1c e7 d9 52 ad 3f bd 31 05 6b 11 c7 c6 3f
       0.0572727293603905 0.17795007444000346
0001a0 b7 d2 62 fa 1d 02 7e 3f 00 94 1d be 94 af 63 3c
       0.007326237775647718 8.537382338645616e-18
0001b0 63 bb 45 4b 42 92 d9 3f 00 e8 51 5e 5e 85 61 3c
       0.39955193854159726 7.598510014805181e-18
0001c0 00 20 ce ff 77 45 68 3c 9b 7a 9b 9b 17 bd c9 3f
       1.0526025490933899e-17 0.20108313653959872
0001d0 84 aa 39 f9 8a 12 c4 3f 00 28 dc 71 ce 03 6d 3c
       0.15681588334276253 1.2583193535376503e-17
0001e0 00 00 4f b5 f5 76 66 3c 3e 6f 1c e7 d9 52 ad 3f
       9.742504854142359e-18 0.057272729360390504
0001f0 bd 31 05 6b 11 c7 c6 3f b9 d2 62 fa 1d 02 7e 3f
       0.17795007444000346 0.00732623777564772
000200 00 38 16 b0 00 2d 6c 3c 5b bb 45 4b 42 92 d9 3f
       1.2219301848827426e-17 0.3995519385415968
000210 00 b0 5c 55 86 65 63 3c 00 ac c7 24 b2 05 6b 3c
       8.411926110409407e-18 1.1719032648248163e-17
000220 9b 7a 9b 9b 17 bd c9 3f 84 aa 39 f9 8a 12 c4 3f
       0.20108313653959872 0.15681588334276253
000230 00 78 20 f4 ca 2c 70 3c 00 b0 e7 51 76 16 69 3c
       1.4029551675332338e-17 1.0880074150227868e-17
000240 ca 80 e7 d4 c8 0c b0 3f bd 31 05 6b 11 c7 c6 3f
       0.06269507596835236 0.17795007444000346
000250 ba d2 62 fa 1d 02 7e 3f 00 00 c1 f9 ce 73 6f 3c
       0.007326237775647721 1.3640294166325393e-17
000260 15 69 ef 52 6b 39 d9 3f a8 85 26 59 91 b2 d8 3e
       0.3941295919336352 5.888350090550559e-06
000270 42 60 9a c4 38 4f ad be 3c c9 31 11 de a8 ad 3f
       -8.734899747562808e-07 0.057928981398520624
000280 1a ad ee a1 93 26 b4 3f 2e 1b 7c 4d fd 79 82 3e
       0.07871363356996533 1.376608114099963e-07
000290 0e ea f8 e6 3f 89 a6 3f 07 10 15 97 f4 bf b9 bf
       0.0440158814858088 -0.10058525742084622
0002a0 d7 1f 57 ce cd 40 cb 3f f4 dc bd aa 98 99 d9 3f
       0.2129151589890614 0.39999977754582905
0002b0 be 3b 1b de 22 4d b6 bf e8 53 87 07 48 39 d9 3f
       -0.08711450502890636 0.39412117705552285
0002c0 5a b8 3f 46 58 c3 e5 3e 77 d3 6a 97 26 bb 97 be
       1.0377438407229725e-05 -3.5362031473455e-07
0002d0 95 2b ff ee bd 89 ac 3f 58 26 5f fa 3e 31 b3 3f
       0.05573838751259711 0.07497018444623771
0002e0 c2 63 44 c4 b2 d2 ac 3e 1a 1b 0c f2 6d ca a9 3f
       8.589935381080721e-07 0.05037253932646575
0002f0 41 f1 0f 10 f3 bf b9 bf 8b 0f 59 86 0b 41 cb 3f
       -0.10058516637940774 0.21292251644092305
000300 aa d4 d0 70 9d 99 d9 3f 4a e7 df ec 38 6a b6 bf
       0.40000091569101903 -0.08755832465240335
000310 38 af 04 e7 64 39 d9 3f 3c 13 ab a1 7e be f6 3e
       0.3941280609167168 2.1690482848740785e-05
000320 e3 bc 7c c9 d0 cb ce be db 47 a1 7d 2e 89 ac 3f
       -3.6711877092959155e-06 0.05573411258286828
000330 46 67 33 42 bf 30 b3 3f e5 9d ac 37 d6 b5 da be
       0.07496257177572571 -6.3682317612899095e-06
000340 a2 76 83 2f fb c9 a9 3f bd 68 cb f0 0a c0 b9 bf
       0.050369119215003325 -0.10058658961080176
000350 80 59 0c 4e 95 41 cb 3f aa 5d f1 c6 9c 99 d9 3f
       0.21293894110631229 0.40000075748454356
000360 e0 84 20 91 21 6b b6 bf 63 b3 c2 cd 9d 39 d9 3f
       -0.08757219117298431 0.39414162725261387
000370 d5 00 ab a1 7e be f6 3e 19 0f 7d c9 d0 cb ce be
       2.1690482848724824e-05 -3.671187709304829e-06
000380 b2 55 3c 80 2e 89 ac 3f 46 67 33 42 bf 30 b3 3f
       0.055734112886209344 0.07496257177572571
000390 a7 bd ac 37 d6 b5 da be a0 76 83 2f fb c9 a9 3f
       -6.368231761296796e-06 0.05036911921500331
0003a0 be 68 cb f0 0a c0 b9 bf 7f 59 0c 4e 95 41 cb 3f
       -0.10058658961080177 0.21293894110631226
0003b0 aa 5d f1 c6 9c 99 d9 3f e0 84 20 91 21 6b b6 bf
       0.40000075748454356 -0.08757219117298431
0003c0 63 b3 c2 cd 9d 39 d9 3f d3 00 ab a1 7e be f6 3e
       0.39414162725261387 2.1690482848724817e-05
0003d0 16 0f 7d c9 d0 cb ce be 53 85 b1 1c 7f c3 b7 3f
       -3.6711877093048276e-06 0.09282679033778622
0003e0 46 67 33 42 bf 30 b3 3f 91 bd ac 37 d6 b5 da be
       0.07496257177572571 -6.368231761296777e-06
0003f0 a0 76 83 2f fb c9 a9 3f ef 8f 12 ad 4c ba a8 bf
       0.05036911921500331 -0.04829635250760577
000400 7f 59 0c 4e 95 41 cb 3f 40 37 9f 2e 0e 20 d8 3f
       0.21293894110631226 0.37695650628016963
000410 e0 84 20 91 21 6b b6 bf f9 7a 5f 48 b9 fa d4 3f
       -0.08757219117298431 0.3278029639022147
000420 d8 00 ab a1 7e be f6 3e 83 0e 7d c9 d0 cb ce be
       2.1690482848724834e-05 -3.6711877093047653e-06
000430 f3 12 09 85 36 04 bf 3f 46 67 33 42 bf 30 b3 3f
       0.12115803478179625 0.07496257177572571
000440 21 bd ac 37 d6 b5 da be a0 76 83 2f fb c9 a9 3f
       -6.368231761296682e-06 0.05036911921500331
000450 ec ec 8e 4e f4 ba 59 bf 7f 59 0c 4e 95 41 cb 3f
       -0.001570452290464537 0.21293894110631226
000460 de a3 c5 6f 8e cb d5 3f e0 84 20 91 21 6b b6 bf
       0.3405490962527987 -0.08757219117298431
000470 e8 67 cf 8b 7c 81 d2 3f e6 00 ab a1 7e be f6 3e
       0.2891532292684347 2.169048284872488e-05
000480 b5 0d 7d c9 d0 cb ce be 29 5b f4 25 ec 7b c7 3f
       -3.671187709304678e-06 0.18346931317565776
000490 46 67 33 42 bf 30 b3 3f 90 bc ac 37 d6 b5 da be
       0.07496257177572571 -6.3682317612965596e-06
0004a0 a0 76 83 2f fb c9 a9 3f e9 ec 8e 4e f4 ba 59 bf
       0.05036911921500331 -0.0015704522904645363
0004b0 7f 59 0c 4e 95 41 cb 3f 6a 3a a7 71 44 80 d3 3f
       0.21293894110631226 0.3047038183112024
0004c0 e0 84 20 91 21 6b b6 bf 7f e8 35 18 de cf d0 3f
       -0.08757219117298431 0.2626872288161692
0004d0 02 01 ab a1 7e be f6 3e e9 0b 7d c9 d0 cb ce be
       2.1690482848724976e-05 -3.6711877093044832e-06
0004e0 29 5b f4 25 ec 7b c7 3f 46 67 33 42 bf 30 b3 3f
       0.18346931317565776 0.07496257177572571
0004f0 62 bb ac 37 d6 b5 da be a0 76 83 2f fb c9 a9 3f
       -6.368231761296304e-06 0.05036911921500331
000500 ae 9c f7 cb 85 b9 4a 3f 7f 59 0c 4e 95 41 cb 3f
       0.0008155730537823447 0.21293894110631226
000510 6a 3a a7 71 44 80 d3 3f e0 84 20 91 21 6b b6 bf
       0.3047038183112024 -0.08757219117298431
000520 c4 5d 01 61 c6 a8 d0 3f 36 01 ab a1 7e be f6 3e
       0.2603012034719223 2.1690482848725152e-05
000530 79 08 7d c9 d0 cb ce be 29 5b f4 25 ec 7b c7 3f
       -3.6711877093041105e-06 0.18346931317565776
000540 46 67 33 42 bf 30 b3 3f 19 b9 ac 37 d6 b5 da be
       0.07496257177572571 -6.368231761295808e-06
000550 a0 76 83 2f fb c9 a9 3f d0 7e 35 57 18 38 8f 3f
       0.05036911921500331 0.015243711625486794
000560 7f 59 0c 4e 95 41 cb 3f be 42 c9 40 4a 21 d3 3f
       0.21293894110631226 0.2989068634679305
000570 e0 84 20 91 21 6b b6 bf 4c a5 0b 92 5c 1b d0 3f
       -0.08757219117298431 0.25167001974349
000580 70 01 ab a1 7e be f6 3e cf 04 7d c9 d0 cb ce be
       2.169048284872535e-05 -3.6711877093037133e-06
000590 29 5b f4 25 ec 7b c7 3f 46 67 33 42 bf 30 b3 3f
       0.18346931317565776 0.07496257177572571
0005a0 a3 b6 ac 37 d6 b5 da be a0 76 83 2f fb c9 a9 3f
       -6.368231761295275e-06 0.05036911921500331
0005b0 17 97 94 30 47 62 9d 3f 7f 59 0c 4e 95 41 cb 3f
       0.028695213642229236 0.21293894110631226
0005c0 fa cd a5 39 11 99 d2 3f e0 84 20 91 21 6b b6 bf
       0.2905924857106751 -0.08757219117298431
0005d0 24 f9 be d1 63 8e cf 3f bd 01 ab a1 7e be f6 3e
       0.2465328954840028 2.169048284872561e-05
0005e0 2f 00 7d c9 d0 cb ce be 29 5b f4 25 ec 7b c7 3f
       -3.671187709303212e-06 0.18346931317565776
0005f0 46 67 33 42 bf 30 b3 3f 8f b3 ac 37 d6 b5 da be
       0.07496257177572571 -6.368231761294607e-06
000600 a0 76 83 2f fb c9 a9 3f 4e b1 69 93 79 c3 a1 3f
       0.05036911921500331 0.0346944801757184
000610 7f 59 0c 4e 95 41 cb 3f 85 4d c0 ca 08 56 d2 3f
       0.21293894110631226 0.28650111961288643
000620 e0 84 20 91 21 6b b6 bf 9c 20 c2 30 df 4f cf 3f
       -0.08757219117298431 0.24462499504830226
000630 76 02 ab a1 7e be f6 3e 86 f7 7c c9 d0 cb ce be
       2.1690482848726236e-05 -3.671187709302273e-06
000640 29 5b f4 25 ec 7b c7 3f 46 67 33 42 bf 30 b3 3f
       0.18346931317565776 0.07496257177572571
000650 53 ae ac 37 d6 b5 da be a0 76 83 2f fb c9 a9 3f
       -6.368231761293472e-06 0.05036911921500331
000660 33 e8 30 12 1f 0f a2 3f 7f 59 0c 4e 95 41 cb 3f
       0.0352716169076789 0.21293894110631226
000670 a9 66 e7 1a 94 4c d2 3f e0 84 20 91 21 6b b6 bf
       0.28592398288092596 -0.08757219117298431
000680 9c 20 c2 30 df 4f cf 3f 7f 03 ab a1 7e be f6 3e
       0.24462499504830226 2.1690482848727134e-05
000690 e2 eb 7c c9 d0 cb ce be 29 5b f4 25 ec 7b c7 3f
       -3.671187709301011e-06 0.18346931317565776
0006a0 46 67 33 42 bf 30 b3 3f 3a a7 ac 37 d6 b5 da be
       0.07496257177572571 -6.368231761291933e-06
0006b0 a0 76 83 2f fb c9 a9 3f 33 e8 30 12 1f 0f a2 3f
       0.05036911921500331 0.0352716169076789
0006c0 7f 59 0c 4e 95 41 cb 3f a9 66 e7 1a 94 4c d2 3f
       0.21293894110631226 0.28592398288092596
0006d0 e0 84 20 91 21 6b b6 bf 9c 20 c2 30 df 4f cf 3f
       -0.08757219117298431 0.24462499504830226
0006e0 ba 03 ab a1 7e be f6 3e 3c e8 7c c9 d0 cb ce be
       2.1690482848727334e-05 -3.6711877093006153e-06
0006f0 29 5b f4 25 ec 7b c7 3f 46 67 33 42 bf 30 b3 3f
       0.18346931317565776 0.07496257177572571
000700 c4 a4 ac 37 d6 b5 da be a0 76 83 2f fb c9 a9 3f
       -6.3682317612913994e-06 0.05036911921500331
000710 4c 45 bc 07 88 21 a2 3f 7f 59 0c 4e 95 41 cb 3f
       0.03541207403589883 0.21293894110631226
000720 31 c5 68 17 fe 4a d2 3f e0 84 20 91 21 6b b6 bf
       0.28582718168316307 -0.08757219117298431
000730 4b 8c 5c fa 70 4e cf 3f 10 04 ab a1 7e be f6 3e
       0.24458133911784538 2.1690482848727626e-05
000740 e9 e3 7c c9 d0 cb ce be 29 5b f4 25 ec 7b c7 3f
       -3.6711877093001464e-06 0.18346931317565776
000750 46 67 33 42 bf 30 b3 3f 04 a2 ac 37 d6 b5 da be
       0.07496257177572571 -6.368231761290803e-06
000760 a0 76 83 2f fb c9 a9 3f cc ea 6c e0 44 4b a2 3f
       0.05036911921500331 0.035730507274328
000770 7f 59 0c 4e 95 41 cb 3f 31 c5 68 17 fe 4a d2 3f
       0.21293894110631226 0.28582718168316307
000780 e0 84 20 91 21 6b b6 bf ed 62 30 c4 01 44 cf 3f
       -0.08757219117298431 0.24426290587941626
000790 69 04 ab a1 7e be f6 3e 77 df 7c c9 d0 cb ce be
       2.1690482848727927e-05 -3.6711877092996645e-06
0007a0 29 5b f4 25 ec 7b c7 3f 46 67 33 42 bf 30 b3 3f
       0.18346931317565776 0.07496257177572571
0007b0 34 9f ac 37 d6 b5 da be a0 76 83 2f fb c9 a9 3f
       -6.368231761290193e-06 0.05036911921500331
0007c0 12 f6 35 4c f9 f2 a3 3f 7f 59 0c 4e 95 41 cb 3f
       0.03896311812694021 0.21293894110631226
0007d0 31 c5 68 17 fe 4a d2 3f e0 84 20 91 21 6b b6 bf
       0.28582718168316307 -0.08757219117298431
0007e0 14 20 3e a9 14 da ce 3f 6c 05 ab a1 7e be f6 3e
       0.24103029502680384 2.1690482848728805e-05
0007f0 39 d4 7c c9 d0 cb ce be 29 5b f4 25 ec 7b c7 3f
       -3.6711877092984456e-06 0.18346931317565776
