data/mpc_weights.npy (npy, 235352 bytes, 1 tensors)

array f8 [2673, 11]
00000000: 0000 0000 0000 0000 0000 0000 0000 0000
00000010: 0000 0000 0000 0000 0000 0000 0000 0000
00000020: 0000 0000 0000 0000 0000 0000 0000 0000
00000030: 0000 0000 0000 0000 0000 0000 0000 0000
00000040: 0000 0000 0000 0000 0000 0000 0000 0000
00000050: 0000 0000 0000 f03f 935e a73b d253 a3bf
00000060: 2b01 8b13 6322 83bf c237 d712 73a1 ce3f
00000070: 4565 a6d6 9607 ca3f 00e7 9684 5e3b 673f
00000080: 8358 63b9 4785 a73f fd29 c7f5 fe00 b63f
00000090: 42d6 4ed3 c31f c83f 5eec fd02 dfc2 aa3f
000000a0: e8b7 bf6e 83db b0bf 4bd7 530b 4cde d23f
000000b0: 710b bca3 eb26 a1bf 13e5 8615 6116 92bf
000000c0: 3ed3 ffa6 6107 d03f f2d3 aadf e5d1 c73f
000000d0: 4859 7001 dfa9 763f afb6 a3c6 65cf a23f
000000e0: 8491 ca75 c5c8 b73f ea7c 0d03 f855 c83f
000000f0: 2602 f2fc 4f36 af3f 6100 2cbf a203 b1bf
00000100: 4bd7 530b 4cde d23f 3a96 94fc 5ba1 a1bf
00000110: 5b46 59d1 6c47 91bf 820c 799d cfcd cf3f
00000120: e1d6 23ea 8555 c93f 8f58 ed40 4b5f 803f
00000130: 95e2 ce50 a48a a23f 4be8 65cf a1b6 b83f
00000140: a770 1971 51bd c73f a75a 02fa f54c ad3f
00000150: 8a9a 0749 4dc6 b2bf 4bd7 530b 4cde d23f
00000160: bcf0 74cd 882d a3bf 420d 4080 21e9 8fbf
00000170: 65c0 a46b 9783 cf3f 607e d622 c2dc c93f
00000180: 12e5 ad58 553b 863f 8a45 76ae a231 a53f
00000190: fb81 c925 1c6f b93f 6b43 d7c5 4b58 c73f
000001a0: 571c 63b0 764e ab3f f117 27a0 7b46 b3bf
000001b0: 7e27 7e83 a1bc d23f cb38 1db6 4544 a1bf
000001c0: aad9 1135 da54 8ebf 9ca8 ca0a 4850 ce3f
000001d0: acad 5e28 8271 c83f af4b 22dc 8b20 813f
000001e0: 497b f999 9d46 a63f a555 d182 687c b83f
000001f0: 0093 048e 63ae c83f 4db2 3f07 0cd1 b03f
00000200: fda7 3541 f8fa b3bf 7e27 7e83 a1bc d23f
00000210: 2717 f1ea 8b6d a3bf 11cc 2252 f71f 8fbf
00000220: 509f 47f3 4125 cf3f 775d 1664 857f c83f
00000230: 1c59 1c6b 03e9 783f 5640 053e 9791 a53f
00000240: 2481 8e77 ff1f bb3f d9d4 582d ac0b c83f
00000250: 1646 1942 c801 ad3f 939a 48a5 2976 b2bf
00000260: 9c14 5203 f2ad d23f e547 010c 2902 87bf
00000270: 1ede 7f0d e992 a5bf 8ca6 4f1b 855e 7f3f
00000280: 9fef bd21 5c37 a93f c0b0 0083 5301 ac3f
00000290: f37c c64b b190 cd3f f789 34e5 0f3b c6bf
000002a0: 9fff 06fb 88ff d53f 9a99 9999 9999 d93f
000002b0: b481 8ad2 5456 c6bf 7fa1 6682 152d d43f
000002c0: f222 055d 0615 593f fba8 0568 4a4e a2bf
000002d0: 1383 d673 82e1 593f e2cf d948 4cfa a53f
000002e0: edd9 bd29 9eb5 ac3f 5422 9201 de49 ce3f
000002f0: f923 e272 def1 c5bf bb08 6578 2d33 d53f
00000300: 9a99 9999 9999 d93f 83bd c0cb 0dca c6bf
00000310: 7fa1 6682 152d d43f 5c22 d77e d65c 5f3f
00000320: 49f2 3c04 ce16 a4bf 8b63 e4dc 3ca0 973f
00000330: 3fd9 c11a 426f af3f 0cc6 3984 a0fb 9e3f
00000340: 6367 6596 90c1 c93f 2bc8 59bb c4d9 c2bf
00000350: 11c5 ca25 1d84 d43f 9a99 9999 9999 d93f
00000360: c44c 64bd b665 c5bf 7fa1 6682 152d d43f
00000370: 0ac2 5677 8b33 81bf b9a7 9344 e00b a9bf
00000380: 0ecb e0bb 80bf c63f 0dcc 3de6 600f a93f
00000390: 9315 44b1 ead1 a0bf 2926 a133 8a13 be3f
000003a0: 17f1 add2 174c bfbf 1014 1f4b cd16 d23f
000003b0: 7f79 5ba2 3ae7 d83f 82b6 8121 4365 bebf
000003c0: 7fa1 6682 152d d43f 7b9e 572c 02d1 a03f
000003d0: 2c66 6129 6ebb a4bf 6183 e932 a725 ca3f
000003e0: 2fee 5a80 fad2 ba3f 74ba 3a64 834b 98bf
000003f0: f524 56d5 8e71 af3f 7b0f 799d 469a 8fbf
00000400: a830 414b 4308 d03f ebd9 948e a794 cd3f
00000410: 704f 5ff9 62da bebf 7fa1 6682 152d d43f
00000420: 2e0a e83b 9b8b 863f b4e2 ca15 d614 9bbf
00000430: f29b b506 d5c7 cc3f 414e 89e0 ee76 c13f
00000440: f1ff 2caf 38e8 8fbf 2d3c 9839 23f3 a93f
00000450: cb3e 2650 9724 a83f 599a 7bda caba cb3f
00000460: df9b c06a 8b43 c23f e4ac 9473 9e49 babf
00000470: 7fa1 6682 152d d43f cb84 591d fd29 f0be
00000480: bfd4 6ee9 ae46 90bf d912 930f 0ef3 d33f
00000490: 6a77 8ccb f457 c33f 781c 152a 7c88 9bbf
000004a0: 0fc8 61dd 64f0 913f 63b9 a913 94f3 af3f
000004b0: d5e1 03d3 5e70 c73f 03e8 0adc 5b0e aa3f
000004c0: 4ce9 0e9f f232 a9bf 7fa1 6682 152d d43f
000004d0: 8ef7 7029 0cda 55bf 7973 446b 7f2a 98bf
000004e0: 7173 e27f 17f9 cc3f 0e0e 4cef cb18 c33f
000004f0: c275 56ba fb0b 91bf 140c 4882 60d8 a63f
00000500: e507 0d01 5e0c af3f 8a8e 05a0 57d9 cb3f
00000510: d104 74c2 6d78 bd3f a9b6 1432 9250 b6bf
00000520: 7fa1 6682 152d d43f 06bc 534d b809 90bf
00000530: 97af 88bb 4c19 90bf 061f 9e19 e996 ce3f
00000540: 5b3f 7f21 3a6c c43f 53d0 7255 a3d0 89bf
00000550: a845 803c 6daa a63f 2382 dabc a0c6 b33f
00000560: 4911 f856 03c0 c93f b7bb ccd9 fbde b43f
00000570: a6b3 5b14 08f7 b1bf 23ba 0b5a 2fee d33f
00000580: 55ac 80d8 dcc3 a83f 8f7c 9752 18ce a8bf
00000590: 2ec5 fd10 cb1b ce3f d347 c035 6f4b b53f
000005a0: fd88 9dc5 1f90 aebf 0154 2120 e7a0 a63f
000005b0: 1cb9 58eb 0803 a7bf 8879 e642 b6c9 d03f
000005c0: 09f5 2294 06e9 d13f e095 9a96 7788 bcbf
000005d0: 23ba 0b5a 2fee d33f a0db 214d 272f 9dbf
000005e0: d8d9 205e 1ab8 85bf ab29 e5ce 97f1 ce3f
000005f0: be2b d610 74b0 c63f 878c a9eb 0914 83bf
00000600: 441d 2762 facd a93f 5611 33d7 1604 ba3f
00000610: 52fd 247d 9466 c73f 0537 aa18 c025 ab3f
00000620: 8f25 d1e0 68c9 abbf 627d a37f b3ee d23f
00000630: 67c5 ca24 0cba 9fbf 63a5 ffb7 5e1f 84bf
00000640: a07a 0e84 f1fe cf3f 2836 8a69 ea0c c63f
00000650: 8ebf 4d7f 2fcd 81bf 7cf7 4bf3 c119 a83f
00000660: a546 fe90 b1e4 b93f 975f 526d 6a27 c73f
00000670: 2d6a 0ce3 b513 a93f 7183 895a f92a a7bf
00000680: e021 d8d2 e5d7 d23f 6090 5820 823d 99bf
00000690: 9999 6e85 440b 8cbf 477e 3791 bf00 d03f
000006a0: 44a9 fe72 55f4 c43f 70e6 a593 e8a6 80bf
000006b0: 534c 0839 fecf a43f b145 c011 8563 b83f
000006c0: 6802 935e 58ad c73f e122 a1f3 8539 af3f
000006d0: 3942 7c60 2451 a6bf e021 d8d2 e5d7 d23f
000006e0: ba91 40a9 ef7a 9dbf aa8d 026d 9895 8bbf
000006f0: f3a5 733a 572b cf3f 85ce a069 e4f7 c43f
00000700: 9230 481a 09d5 81bf bceb 576a b65b a63f
00000710: 202b 2113 30a5 ba3f 621f 1448 0bdf c63f
00000720: f9e3 2b5e 8e80 ac3f 0b8c b6ff ced6 a0bf
00000730: e021 d8d2 e5d7 d23f 37f8 40c1 cc8b 9abf
00000740: d7c7 1c0e 8574 90bf 507d 8114 b295 ce3f
00000750: 0fec e086 bcc4 c43f db3b 3d39 32bf 80bf
00000760: b5f8 3a48 5532 a73f 79c5 4792 4a33 bb3f
00000770: 2105 702b 40c7 c63f 0253 5190 22f7 af3f
00000780: a070 2839 0126 a3bf e021 d8d2 e5d7 d23f
00000790: 408f 45fd 11a2 9ebf a8ec 616f dba0 90bf
000007a0: d85e 92d3 72ff ce3f 1e6c 350e c128 c53f
000007b0: 30b2 e755 cfc0 84bf e769 8ba1 26e5 a53f
000007c0: d191 16b1 4b85 bb3f 5ccb f147 1511 c73f
000007d0: ca66 09ab cb48 b03f f618 a50b fe53 a4bf
000007e0: e021 d8d2 e5d7 d23f 407e ac73 119f 9ebf
000007f0: e5f0 b28f a617 91bf 00f2 bb17 2764 cf3f
0.0 0.0 0.0 0.0 0.0 0.0 0.0 0.0
0.0 0.0 1.0 -0.03774888017840996 -0.009342931779770488 0.23930204791980542 0.2033566043944949 0.0028359266331933197
0.04593872201955753 0.08595269680441926 0.1884693891312726 0.05226799880525655 -0.06584950879889073 0.2948179350490718 -0.03350006459915889 -0.017663495005511964
0.25045052822615677 0.18609307690863336 0.005533095470147416 0.03673856782721196 0.09290727735294096 0.19012355946595189 0.060961246134869904 -0.06646172683031316
0.2948179350490718 -0.034434198935099095 -0.016874027516968187 0.2484683531675707 0.19792245800606792 0.007994258803290214 0.03621400343349027 0.09653674424581131
0.18546503088407926 0.05722778965826097 -0.07333834679557519 0.2948179350490718 -0.037456774788070274 -0.015581380583177155 0.24620335346253622 0.2020495100123183
0.010855356949593307 0.04139431361830777 0.09935165331399524 0.18238207969855166 0.05333300498164622 -0.07529423389414071 0.2927631172284392 -0.03372400138924688
-0.014810280556258732 0.23682499434409443 0.1909640023344371 0.008362858443694636 0.043507504506797696 0.09564831918517898 0.19282192644563878 0.06568980385754593
-0.07804824440032117 0.2927631172284392 -0.037945148877538686 -0.015197689241494701 0.24332451228041885 0.19139163386419586 0.006081593850259883 0.042126394577849766
0.10595699948180887 0.1878562184735191 0.05665422255391321 -0.07211551938289977 0.29186678241996744 -0.011234589270461679 -0.04213646211422549 0.007658500621781205
0.04925048744095694 0.05469761823801056 0.23097816657989476 -0.1736774319807208 0.3437216235579345 0.4 -0.17450962333988473 0.31525171026671467
0.0015308916227516037 -0.035753560255061566 0.0015796445798985134 0.042925247090266586 0.056073134036456064 0.23662924839688293 -0.17144375428713923 0.33124863393107845
0.4 -0.178041195381848 0.31525171026671467 0.0019142241175008822 -0.03923648645147588 0.023072195989786642 0.06139570786119685 0.03025675589601033
0.20121962874946595 -0.14727076671585002 0.3205635899604014 0.4 -0.16716655967375094 0.31525171026671467 -0.008399095134195473 -0.048918732043446274
0.17771920369849464 0.048945453744544044 -0.03285153783694308 0.11748565445409355 -0.12225483792821411 0.28264171920847136 0.3891131005783776 -0.1187326390078969
0.31525171026671467 0.03284460822379472 -0.04049247985012658 0.20427408204980238 0.10478177674934196 -0.023725560181157637 0.06141325334744777 -0.015430976563159273
0.25050432538115297 0.2310990759085166 -0.12051981533232747 0.31525171026671467 0.011008465543459325 -0.026446671562299698 0.22484839274986218 0.13644205058754902
-0.01557964596361214 0.050683117657279154 0.04715416768442323 0.2166379515467323 0.1426862975360725 -0.10268583604618048 0.31525171026671467 -1.541520926762601e-05
-0.015894635198226533 0.31170989533374677 0.15112171114827372 -0.026887836521634928 0.01751859284599538 0.06240523090387986 0.183116772684811 0.05089079915110519
-0.049216825405397374 0.31525171026671467 -0.0013337248581275249 -0.023599615976411557 0.22635167831768002 0.14919423279216953 -0.016647275207665187 0.04461957540845432
0.060641229275020504 0.21757026017722964 0.11511884686844388 -0.08716691706350822 0.31525171026671467 -0.015662078590079197 -0.015721510835802723 0.23898042441236828
0.15955282817457825 -0.012604976697140701 0.044269002566703464 0.07724957094843225 0.20117227312597155 0.08152746264816711 -0.07017565247561083 0.3114126567224124
0.04836931364874234 -0.048447380144119305 0.23522318200733977 0.08318228781015984 -0.05969332968995109 0.04419634120191774 -0.04494502900012007 0.2623115208933986
0.2798477598806391 -0.11145732333041947 0.3114126567224124 -0.028500188906459223 -0.010605054853027804 0.241747833273917 0.17725992986774303 -0.009315564636557262
0.050399612885991846 0.10162489656346926 0.182817994218548 0.053022387514927195 -0.05427100891445057 0.2958191629858985 -0.03098315214692118 -0.009825458517257862
0.24996775577615882 0.1722691550570954 -0.00869214160204004 0.04707151503497095 0.10114583768725056 0.18089037263848404 0.04897850414836955 -0.045249740888499874
0.29442735281238974 -0.02464869806694059 -0.013693366357824742 0.25004567319226506 0.16370647540072458 -0.008130852704869101 0.04064936109730213 0.09526855166793415
0.18497757547267502 0.0609857425593583 -0.04358781507301441 0.29442735281238974 -0.02878927679570762 -0.0134689243571476 0.2435101542862835 0.16381507070183346
-0.008707114328921049 0.04366846130502419 0.10408306567221048 0.17868176478827552 0.0556683053927784 -0.032888859477019215 0.29442735281238974 -0.02592391900565635
-0.01606948755870249 0.23894334794293082 0.16225391946667897 -0.008177177783776848 0.045305886332685764 0.10625139304445054 0.17795564766860486 0.06243236552896826
-0.03739932844857319 0.29442735281238974 -0.02991512401912577 -0.016238621400117254 0.24217067080166177 0.16530621713431598 -0.010133380707849943 0.0427639076421718
0.10750268052522151 0.18020883572497837 0.0636107723779801 -0.03970331089162642 0.29442735281238974 -0.02990367191807608 -0.016691782494249536 0.24524391802687262
