data/mpc_weights.npy (npy, 310144 bytes, 1 tensors)

array f8 [5536, 7]
0	0x0000000000000000	0.0
1	0x0000000000000000	0.0
2	0x0000000000000000	0.0
3	0x0000000000000000	0.0
4	0x0000000000000000	0.0
5	0x0000000000000000	0.0
6	0x3ff0000000000000	1.0
7	0x3fd039a6856b2f02	0.25351870564621504
8	0x3f91675f422c51f3	0.016995895780455638
9	0x3fd8eb3481f6d38a	0.38935578052342434
10	0x3fd276a56c45b384	0.2884915883394614
11	0xbfcf2a90f1fb5166	-0.24348651710046026
12	0xbf9befdd2d9e8360	-0.02728219595849468
13	0x3fd4a24fe35a466c	0.3224067421188923
14	0x3fcfea4944772846	0.24933734744110064
15	0x3f987895b160b1f2	0.023897494269634785
16	0x3fd8e10a376411b4	0.3887353459288321
17	0x3fd1f29764fa6682	0.2804316030611532
18	0xbfd005e5c71522a4	-0.25035995904594643
19	0xbf8d8f93ffc8e6a5	-0.014434009784156496
20	0x3fd4a212cd7a0ede	0.3223921782120963
21	0x3fd2b4d1544c68ab	0.2922862361171023
22	0xbfd4d479509a99fa	-0.32546837684131413
23	0x3fd6f20c1b3a07a8	0.3585233941922703
24	0x3f9b3507d10363c6	0.02656948292937835
25	0xbf65e8da1471f6e5	-0.0026745089886038736
26	0x3fd503ed0825fbc8	0.3283646182607609
27	0x3fd4a23010051d06	0.3223991543240604
28	0x3fd2bf8ac636b62f	0.29294080120857563
29	0xbfd4146a0f408fa2	-0.3137459896990952
30	0x3fd6fad843199d3c	0.35906034996738234
31	0x3fa2f62077c45a37	0.03703404867171794
32	0xbf8e3b947f40f937	-0.014762077458837381
33	0x3fd44ab55e858d3a	0.31705984335549753
34	0x3fd4a26a3c5f5768	0.32241302390808935
35	0x3fd218af26e3b14d	0.2827566032199414
36	0xbfd142873cf71d88	-0.2696855635990336
37	0x3fd73aa48d5fd4ac	0.3629542713745859
38	0x3fb3df83efaa8bda	0.07762932397103786
39	0xbfaa6ff9487ead38	-0.05163554201075232
40	0x3fd1a33655428336	0.27558668447641155
41	0x3fd4a21b60b65b49	0.3223942226845123
42	0x3fd4115c4cd37a06	0.3135596037153906
43	0xbfd6fe88c68a6ab0	-0.3592855395196848
44	0x3fd77c800d7662ca	0.36697388949100385
45	0x3f71ac85801da02c	0.004314919935360744
46	0xbf806f085482d1ac	-0.008024277762481123
47	0x3fd70ba511690ae8	0.3600857419989283
48	0x3fd4a1cd87a4f4be	0.3223756622936199
49	0x3fd40008d25a4ca3	0.31250210325488065
50	0xbfd5502f7faec86d	-0.3330191370870413
51	0x3fd702972df5e14e	0.3595331143219668
52	0x3fa095586e002388	0.032389415195274884
53	0xbfa48ec25c11b69a	-0.04015166639224539
54	0x3fd62affec0e7dbe	0.3463744931450171
55	0x3fd4a1bcd123784e	0.3223716776245781
56	0x3fd35225d40402e2	0.30188890175490546
57	0xbfd311d03f655218	-0.2979622477626278
58	0x3fd6a2b6d7abf7ac	0.35368128835386403
59	0x3fad8e4bd5ca1306	0.057726259085972884
60	0xbfa9c25a789f4b56	-0.050310923790354664
61	0x3fd401a8d8d6fee6	0.31260129142536497
62	0x3fd4a1cc8f314c9d	0.3223754309048646
63	0x3fd299fe354b0f5e	0.29064898685850504
64	0xbfd121feb0ec868e	-0.26769988324859006
65	0x3fd6855913a4ef42	0.35188891332994754
66	0x3fb52f87cc99f962	0.08275650735047216
67	0xbfafcac489d3298e	-0.062093869995425086
68	0x3fd20e9c13187499	0.2821417032699372
69	0x3fd4a181f31679a0	0.32235764254610366
70	0x3fd1981f0943dd12	0.2749097433547415
71	0xbfc955d47b4d1fa0	-0.197931823926635
72	0x3fd6eee51b50d82e	0.3583309904819342
73	0x3fc0e252d99397c7	0.1319068491349624
74	0xbfbc3da9b9b51ac4	-0.11031590255616225
75	0x3fcc416620c6188d	0.22074581718715472
76	0x3fd4a1740a580cee	0.3223543263449774
77	0x3fd14583718d1fa2	0.2698677643679678
78	0xbfc29d4bad862f6f	-0.14542528126582563
79	0x3fd743f1a634e0e3	0.3635219691382316
80	0x3fc404ed1993a56e	0.1564003348242226
81	0xbfc26ad06ea39841	-0.14388471033379527
82	0x3fc6ad6aa76e561b	0.177167255166453
83	0x3fd4a16d15d4c844	0.3223526681132436
84	0x3fd0d8fec46a657a	0.26324433499538424
85	0xbfc20db32c76f084	-0.14104308768390095
86	0x3fd716c55ad9a9ca	0.36076482650846897
87	0x3fc4403eaf960075	0.15821059773952909
88	0xbfc260c7160fdba1	-0.14357842042201432
89	0x3fc70c7977f78e56	0.18006819112553057
90	0x3fd4a11cee59a5b4	0.3223335578573725
91	0x3fd03bc0b4b39dcf	0.25364701887744173
92	0xbfb22d3554aae576	-0.07100232426718897
93	0x3fd710dac2c7cce4	0.36040371915369307
94	0x3fc99491fa36be36	0.19984650342438365
95	0xbfc7af0808258e70	-0.1850290336397964
96	0x3fbeabead6c072ad	0.11981075041735308
97	0x3fd4a0f22f08d420	0.3223233661004219
98	0x3fd0fe65e34baf06	0.26552722164954934
99	0x3f6cf6967110efe1	0.003535550910354943
100	0x3fd924de781cf254	0.3928753064135766
101	0x3fcd825aa41cade6	0.23054059041292801
102	0xbfd032517b613c76	-0.25307118462382705
103	0x3fa399bd7fe4fb50	0.03828231989108721
104	0x3fd4a0baf121ea1f	0.32231019542783373
105	0x3fd105b977dbdb83	0.265974394845607
106	0xbfa3d143d0868948	-0.03870593948819817
107	0x3fd87aa67182d76a	0.38248597226208025
108	0x3fcbcfcd5cab421f	0.21727911972858835
109	0xbfcc4f5be3cc4ce1	-0.22117184279395644
110	0x3fb263f4b5efadc6	0.0718377060108458
111	0x3fd4a092a6d84324	0.32230058949885376
112	0x3fd0e6fb6039b91c	0.264098018617817
113	0xbfc18505f85dbc9e	-0.13687204959157823
114	0x3fd6ce6f882b59b0	0.35634983346735805
115	0x3fc4ec6856a75f5c	0.1634645865549328
116	0xbfc1d015992a7872	-0.1391627309685109
117	0x3fc5bd405bc648c6	0.16983799439601038
118	0x3fd4a04e8744d03c	0.32228434762805924
119	0x3fd00cfbf3cdc280	0.2507924919982898
120	0x3fb2a1bef7a5d9e5	0.07278054758157955
121	0x3fd6b5098eb459f9	0.3547996419523823
122	0x3fd09593ab97c67d	0.2591294456206937
123	0xbfd0840039b9b15e	-0.25805669438593337
124	0xbf5c5fbf5bdf5f9c	-0.0017318123568567994
125	0x3fd4a0570d12a7c0	0.3222863795914428
126	0x3fd26b60b3a0b3bf	0.28780381719371556
127	0x3fb975d4f143686c	0.09945422067849713
128	0x3fd99999accd6d9b	0.4000000178836786
129	0x3fd0fabf89925c7f	0.2653044551347605
130	0xbfd391db3cf2a48a	-0.30577736808715683
131	0xbfa584364a6cf1e2	-0.042024323067810135
132	0x3fd2e532e03eda00	0.29523918055511444
133	0x3fd2721f368282fa	0.2882154495546697
134	0x3fb53c0a883d2c2a	0.08294740511080137
135	0x3fd999995b6722e6	0.3999999420744146
136	0x3fd00352c75ad886	0.25020284145592375
137	0xbfd25a77cb9eea7a	-0.2867717255100285
138	0xbf9e87f3c7262a9f	-0.029815491705032057
139	0x3fd2e4e90cda71fa	0.29522157912450064
140	0x3fd1df6b25ee7e2c	0.2792613859582811
141	0xbfc0c9966b6955ae	-0.13115196461391804
142	0x3fd769a93155ae54	0.36582403009262987
143	0x3fc42f65d7842a64	0.1576964666677042
144	0xbfc198a2eb000cd2	-0.13747059321040084
145	0x3fc5d6f82f7467a6	0.17062284772037833
146	0x3fd2e4d9507a73d0	0.2952178274079502
147	0x3fd213dc07781d5e	0.28246212701238516
148	0xbfc4a3a45730b877	-0.16124395615901552
149	0x3fd7706be6e8b6b8	0.3662366633387637
150	0x3fc26090d984ada2	0.143571954927535
151	0xbfbf047ef4afcd81	-0.12116235231206042
152	0x3fc8f339b570a89e	0.1949226509034973
153	0x3fd2e4c4b2f1050a	0.2952129123187467
154	0x3fd1a5c6bd3f32b1	0.27574318390979174
155	0xbfc037e9ba0cbf98	-0.126706329197529
156	0x3fd7837e461ef86f	0.36740071151496684
157	0x3fc57878dc3166de	0.1677390170250907
158	0xbfc2120bfe7bfdc4	-0.14117574621194084
159	0x3fc4b581fd1c7106	0.16178917750301752
160	0x3fd2e4b86c442ec0	0.29520998547443966
161	0x3fd1016eba69e4aa	0.26571243481118734
162	0x3f85d8d95b99306c	0.010667512996541194
163	0x3fd7f96020353616	0.3745956720857476
164	0x3fcce6cb2fef19d9	0.22579326477553144
165	0xbfcbf2eb2e352134	-0.218350789606356
166	0x3fa7bf5b8aae35dc	0.046381817511342155
167	0x3fd2e48ee862c298	0.295200087489357
168	0x3fd1e38ce458c169	0.2795135717342619
169	0xbfc032a2964aa56f	-0.12654526079613101
170	0x3fd7ffdc2bdea92e	0.37499145778805854
171	0x3fc4da3e4c8650e0	0.16291025864177922
172	0xbfc2461c6187168a	-0.142764613743726
173	0x3fc40ea850f751b6	0.1566973109571685
174	0x3fd2e4831cf75e93	0.29519727543581914
175	0x3fd156c0dfda3f06	0.27092000828359664
176	0x3fb7d6f397623458	0.09312365003479905
177	0x3fd84d98fbe88d58	0.37973618126325936
178	0x3fce6028be619da1	0.2373095445247886
179	0xbfd0d1b5e577f11a	-0.2627997151282827
180	0xbf8b9a7181e2beed	-0.01347817113523272
181	0x3fd2e45e50ca3d4e	0.2951885022129844
182	0x3fd2b660eb79be9c	0.29238150592480294
183	0x3fc3569a8ed52bd0	0.15108043646099967
184	0x3fd956c84a0e4d1b	0.39592177612321827
185	0x3fcb19f0fcb6051f	0.21172916736035405
186	0xbfd2fa9c49a266b9	-0.29654605093820013
187	0xbfa97766413a0698	-0.04973907037948527
188	0x3fd2e41a169520a0	0.29517223553967575
189	0x3fd2f83f9a37725d	0.2964018827458739
190	0x3fc6d726ed4770ca	0.17844091974155268
191	0x3fd907546ed004fe	0.3910723764566483
192	0x3fcb601610551ee5	0.21386981770978433
193	0xbfd3ea2d2317f5ba	-0.3111679880820152
194	0xbfb053249b77863c	-0.06376866145685595
195	0x3fd2e3c3c23e8fca	0.29515165299585233
196	0x3fd1d1c913ec201f	0.2784292883447978
197	0xbfd8064dacdc2ece	-0.3753847301565941
198	0x3fd5e645b7f628f0	0.3421797081470137
199	0x3fa74002938cac24	0.045410233031667496
200	0x3f8d196c9876828e	0.014208649065780034
201	0x3fd99999f7dd987e	0.40000008779168883
202	0x3fd2e3d931cfd110	0.29515676369125377
203	0x3fd1539de80e1786	0.27072856580377225
204	0xbfd8612040adcea4	-0.3809280997877329
205	0x3fd6a9c886e2d89f	0.3541127507445569
206	0x3fa4f160bedb3ede	0.04090406732359296
207	0x3f94830831ad53f0	0.020031097442672008
208	0x3fd999997fc43013	0.39999997594054654
209	0x3fd2e3c3b7087e6e	0.29515164255460646
210	0x3fd0c678b8f92a9f	0.2621137434368083
211	0xbfd874f1f3688a26	-0.3821377636942621
212	0x3fd728cd8c55b3c0	0.36186541275565887
213	0x3fa5559c0d2b8578	0.04166877423063914
214	0x3f95dbc373a9504b	0.021346143659983146
215	0x3fd999996163297f	0.3999999476478919
216	0x3fd2e3a293e3fe7c	0.29514374201242055
217	0x3fd13d34bc225ac0	0.2693607175109882
218	0xbfd8b318f9ae69fc	-0.38593124754848396
219	0x3fd79eaaf70b29c2	0.3690593159232344
220	0x3fa04b4c89b80754	0.031824485598930835
221	0x3f9507d45b38b422	0.02053767973682253
222	0x3fd99999fb509bee	0.40000009100407297
223	0x3fd2e3b8742da54e	0.2951489576867815
224	0x3fd0edaefb96b1ba	0.26450705117420237
225	0xbfd7890f8f47c0ed	-0.36774052612510283
226	0x3fd777cb9beb9874	0.3666867277773982
227	0x3fa2473deb71f8ad	0.035699782362813216
228	0x3f774cf5129f471e	0.005688626590158367
229	0x3fd9999a1eccb78a	0.4000001240518648
230	0x3fd2e3df471f5ffb	0.29515821404993375
231	0x3fd1169057eda221	0.2670021876024596
232	0xbfd6ad01136a6384	-0.354309338531998
233	0x3fd6fe5160b59b9a	0.3592723316600598
234	0x3fae433c89268f77	0.059106723539371346
235	0xbf6e26f42db3d885	-0.0036806840049577482
236	0x3fd828454bd36578	0.3774579277502066
237	0x3fd2e3c06637b19e	0.29515085203345304
238	0x3fd099e1c5cf2971	0.2593922073107456
239	0xbfd5e5f5ad62702a	-0.34216062481005116
240	0x3fd6dd19d9252270	0.35724493222782083
241	0x3fb1522a8249bf99	0.06766000443326305
242	0xbf7fc917f030b783	-0.007760137089503408
243	0x3fd7b5edf147bb0e	0.37047909319419225
244	0x3fd2e3a5dc606c56	0.2951445247760537
245	0x3fd08e2fd912f994	0.2586784000267468
246	0xbfd5cafc0afb9878	-0.34051419327295873
247	0x3fd70369b5e023a0	0.3595833088043552
248	0x3fb13c01319a12e8	0.06732184849722567
249	0xbf8864999869e25e	-0.011910629237932454
250	0x3fd7c9f46f77d164	0.37170134435225166
251	0x3fd2e3928cf63dda	0.295139920862281
252	0x3fd0714b3edbf065	0.2569149125918158
253	0xbfd57bbb807f7b14	-0.3356770281661039
254	0x3fd720df4b81c3c6	0.3613813626644141
255	0x3fb4180da80c653f	0.07849202492470385
